<?xml version="1.0" ?>
<net name="model" version="10">
	<layers>
		<layer id="0" name="classifier.3.weight" type="Const" version="opset1">
			<data offset="0" size="465920" shape="91,1280" element_type="f32"/>
			<output>
				<port id="0" precision="FP32" names="classifier.3.weight">
					<dim>91</dim>
					<dim>1280</dim>
				</port>
			</output>
		</layer>
		<layer id="1" name="classifier.0.weight" type="Const" version="opset1">
			<data offset="465920" size="4915200" shape="1280,960" element_type="f32"/>
			<output>
				<port id="0" precision="FP32" names="classifier.0.weight">
					<dim>1280</dim>
					<dim>960</dim>
				</port>
			</output>
		</layer>
		<layer id="2" name="952" type="Const" version="opset1">
			<data offset="5381120" size="614400" shape="960,160,1,1" element_type="f32"/>
			<output>
				<port id="0" precision="FP32" names="952">
					<dim>960</dim>
					<dim>160</dim>
					<dim>1</dim>
					<dim>1</dim>
				</port>
			</output>
		</layer>
		<layer id="3" name="940" type="Const" version="opset1">
			<data offset="5995520" size="614400" shape="160,960,1,1" element_type="f32"/>
			<output>
				<port id="0" precision="FP32" names="940">
					<dim>160</dim>
					<dim>960</dim>
					<dim>1</dim>
					<dim>1</dim>
				</port>
			</output>
		</layer>
		<layer id="4" name="988" type="Const" version="opset1">
			<data offset="6609920" size="4" shape="1,1" element_type="f32"/>
			<output>
				<port id="0" precision="FP32" names="988">
					<dim>1</dim>
					<dim>1</dim>
				</port>
			</output>
		</layer>
		<layer id="5" name="features.14.conv.5.fc.2.weight" type="Const" version="opset1">
			<data offset="6609924" size="921600" shape="960,240" element_type="f32"/>
			<output>
				<port id="0" precision="FP32" names="features.14.conv.5.fc.2.weight">
					<dim>960</dim>
					<dim>240</dim>
				</port>
			</output>
		</layer>
		<layer id="6" name="features.14.conv.5.fc.0.weight" type="Const" version="opset1">
			<data offset="7531524" size="921600" shape="240,960" element_type="f32"/>
			<output>
				<port id="0" precision="FP32" names="features.14.conv.5.fc.0.weight">
					<dim>240</dim>
					<dim>960</dim>
				</port>
			</output>
		</layer>
		<layer id="7" name="934" type="Const" version="opset1">
			<data offset="8453124" size="614400" shape="960,160,1,1" element_type="f32"/>
			<output>
				<port id="0" precision="FP32" names="934">
					<dim>960</dim>
					<dim>160</dim>
					<dim>1</dim>
					<dim>1</dim>
				</port>
			</output>
		</layer>
		<layer id="8" name="931" type="Const" version="opset1">
			<data offset="9067524" size="430080" shape="160,672,1,1" element_type="f32"/>
			<output>
				<port id="0" precision="FP32" names="931">
					<dim>160</dim>
					<dim>672</dim>
					<dim>1</dim>
					<dim>1</dim>
				</port>
			</output>
		</layer>
		<layer id="9" name="983" type="Const" version="opset1">
			<data offset="6609920" size="4" shape="1,1" element_type="f32"/>
			<output>
				<port id="0" precision="FP32" names="983">
					<dim>1</dim>
					<dim>1</dim>
				</port>
			</output>
		</layer>
		<layer id="10" name="features.13.conv.5.fc.2.weight" type="Const" version="opset1">
			<data offset="9497604" size="451584" shape="672,168" element_type="f32"/>
			<output>
				<port id="0" precision="FP32" names="features.13.conv.5.fc.2.weight">
					<dim>672</dim>
					<dim>168</dim>
				</port>
			</output>
		</layer>
		<layer id="11" name="features.13.conv.5.fc.0.weight" type="Const" version="opset1">
			<data offset="9949188" size="451584" shape="168,672" element_type="f32"/>
			<output>
				<port id="0" precision="FP32" names="features.13.conv.5.fc.0.weight">
					<dim>168</dim>
					<dim>672</dim>
				</port>
			</output>
		</layer>
		<layer id="12" name="925" type="Const" version="opset1">
			<data offset="10400772" size="301056" shape="672,112,1,1" element_type="f32"/>
			<output>
				<port id="0" precision="FP32" names="925">
					<dim>672</dim>
					<dim>112</dim>
					<dim>1</dim>
					<dim>1</dim>
				</port>
			</output>
		</layer>
		<layer id="13" name="922" type="Const" version="opset1">
			<data offset="10701828" size="301056" shape="112,672,1,1" element_type="f32"/>
			<output>
				<port id="0" precision="FP32" names="922">
					<dim>112</dim>
					<dim>672</dim>
					<dim>1</dim>
					<dim>1</dim>
				</port>
			</output>
		</layer>
		<layer id="14" name="978" type="Const" version="opset1">
			<data offset="6609920" size="4" shape="1,1" element_type="f32"/>
			<output>
				<port id="0" precision="FP32" names="978">
					<dim>1</dim>
					<dim>1</dim>
				</port>
			</output>
		</layer>
		<layer id="15" name="features.12.conv.5.fc.2.weight" type="Const" version="opset1">
			<data offset="11002884" size="451584" shape="672,168" element_type="f32"/>
			<output>
				<port id="0" precision="FP32" names="features.12.conv.5.fc.2.weight">
					<dim>672</dim>
					<dim>168</dim>
				</port>
			</output>
		</layer>
		<layer id="16" name="features.12.conv.5.fc.0.weight" type="Const" version="opset1">
			<data offset="11454468" size="451584" shape="168,672" element_type="f32"/>
			<output>
				<port id="0" precision="FP32" names="features.12.conv.5.fc.0.weight">
					<dim>168</dim>
					<dim>672</dim>
				</port>
			</output>
		</layer>
		<layer id="17" name="916" type="Const" version="opset1">
			<data offset="11906052" size="301056" shape="672,112,1,1" element_type="f32"/>
			<output>
				<port id="0" precision="FP32" names="916">
					<dim>672</dim>
					<dim>112</dim>
					<dim>1</dim>
					<dim>1</dim>
				</port>
			</output>
		</layer>
		<layer id="18" name="913" type="Const" version="opset1">
			<data offset="12207108" size="215040" shape="112,480,1,1" element_type="f32"/>
			<output>
				<port id="0" precision="FP32" names="913">
					<dim>112</dim>
					<dim>480</dim>
					<dim>1</dim>
					<dim>1</dim>
				</port>
			</output>
		</layer>
		<layer id="19" name="973" type="Const" version="opset1">
			<data offset="6609920" size="4" shape="1,1" element_type="f32"/>
			<output>
				<port id="0" precision="FP32" names="973">
					<dim>1</dim>
					<dim>1</dim>
				</port>
			</output>
		</layer>
		<layer id="20" name="features.11.conv.5.fc.2.weight" type="Const" version="opset1">
			<data offset="12422148" size="230400" shape="480,120" element_type="f32"/>
			<output>
				<port id="0" precision="FP32" names="features.11.conv.5.fc.2.weight">
					<dim>480</dim>
					<dim>120</dim>
				</port>
			</output>
		</layer>
		<layer id="21" name="features.11.conv.5.fc.0.weight" type="Const" version="opset1">
			<data offset="12652548" size="230400" shape="120,480" element_type="f32"/>
			<output>
				<port id="0" precision="FP32" names="features.11.conv.5.fc.0.weight">
					<dim>120</dim>
					<dim>480</dim>
				</port>
			</output>
		</layer>
		<layer id="22" name="907" type="Const" version="opset1">
			<data offset="12882948" size="153600" shape="480,80,1,1" element_type="f32"/>
			<output>
				<port id="0" precision="FP32" names="907">
					<dim>480</dim>
					<dim>80</dim>
					<dim>1</dim>
					<dim>1</dim>
				</port>
			</output>
		</layer>
		<layer id="23" name="886" type="Const" version="opset1">
			<data offset="13036548" size="64000" shape="80,200,1,1" element_type="f32"/>
			<output>
				<port id="0" precision="FP32" names="886">
					<dim>80</dim>
					<dim>200</dim>
					<dim>1</dim>
					<dim>1</dim>
				</port>
			</output>
		</layer>
		<layer id="24" name="880" type="Const" version="opset1">
			<data offset="13100548" size="64000" shape="200,80,1,1" element_type="f32"/>
			<output>
				<port id="0" precision="FP32" names="880">
					<dim>200</dim>
					<dim>80</dim>
					<dim>1</dim>
					<dim>1</dim>
				</port>
			</output>
		</layer>
		<layer id="25" name="877" type="Const" version="opset1">
			<data offset="13164548" size="76800" shape="80,240,1,1" element_type="f32"/>
			<output>
				<port id="0" precision="FP32" names="877">
					<dim>80</dim>
					<dim>240</dim>
					<dim>1</dim>
					<dim>1</dim>
				</port>
			</output>
		</layer>
		<layer id="26" name="871" type="Const" version="opset1">
			<data offset="13241348" size="38400" shape="240,40,1,1" element_type="f32"/>
			<output>
				<port id="0" precision="FP32" names="871">
					<dim>240</dim>
					<dim>40</dim>
					<dim>1</dim>
					<dim>1</dim>
				</port>
			</output>
		</layer>
		<layer id="27" name="859" type="Const" version="opset1">
			<data offset="13279748" size="19200" shape="40,120,1,1" element_type="f32"/>
			<output>
				<port id="0" precision="FP32" names="859">
					<dim>40</dim>
					<dim>120</dim>
					<dim>1</dim>
					<dim>1</dim>
				</port>
			</output>
		</layer>
		<layer id="28" name="958" type="Const" version="opset1">
			<data offset="6609920" size="4" shape="1,1" element_type="f32"/>
			<output>
				<port id="0" precision="FP32" names="958">
					<dim>1</dim>
					<dim>1</dim>
				</port>
			</output>
		</layer>
		<layer id="29" name="features.5.conv.5.fc.2.weight" type="Const" version="opset1">
			<data offset="13298948" size="15360" shape="120,32" element_type="f32"/>
			<output>
				<port id="0" precision="FP32" names="features.5.conv.5.fc.2.weight">
					<dim>120</dim>
					<dim>32</dim>
				</port>
			</output>
		</layer>
		<layer id="30" name="features.5.conv.5.fc.0.weight" type="Const" version="opset1">
			<data offset="13314308" size="15360" shape="32,120" element_type="f32"/>
			<output>
				<port id="0" precision="FP32" names="features.5.conv.5.fc.0.weight">
					<dim>32</dim>
					<dim>120</dim>
				</port>
			</output>
		</layer>
		<layer id="31" name="853" type="Const" version="opset1">
			<data offset="13329668" size="19200" shape="120,40,1,1" element_type="f32"/>
			<output>
				<port id="0" precision="FP32" names="853">
					<dim>120</dim>
					<dim>40</dim>
					<dim>1</dim>
					<dim>1</dim>
				</port>
			</output>
		</layer>
		<layer id="32" name="850" type="Const" version="opset1">
			<data offset="13348868" size="11520" shape="40,72,1,1" element_type="f32"/>
			<output>
				<port id="0" precision="FP32" names="850">
					<dim>40</dim>
					<dim>72</dim>
					<dim>1</dim>
					<dim>1</dim>
				</port>
			</output>
		</layer>
		<layer id="33" name="955" type="Const" version="opset1">
			<data offset="6609920" size="4" shape="1,1" element_type="f32"/>
			<output>
				<port id="0" precision="FP32" names="955">
					<dim>1</dim>
					<dim>1</dim>
				</port>
			</output>
		</layer>
		<layer id="34" name="features.4.conv.5.fc.2.weight" type="Const" version="opset1">
			<data offset="13360388" size="6912" shape="72,24" element_type="f32"/>
			<output>
				<port id="0" precision="FP32" names="features.4.conv.5.fc.2.weight">
					<dim>72</dim>
					<dim>24</dim>
				</port>
			</output>
		</layer>
		<layer id="35" name="features.4.conv.5.fc.0.weight" type="Const" version="opset1">
			<data offset="13367300" size="6912" shape="24,72" element_type="f32"/>
			<output>
				<port id="0" precision="FP32" names="features.4.conv.5.fc.0.weight">
					<dim>24</dim>
					<dim>72</dim>
				</port>
			</output>
		</layer>
		<layer id="36" name="844" type="Const" version="opset1">
			<data offset="13374212" size="6912" shape="72,24,1,1" element_type="f32"/>
			<output>
				<port id="0" precision="FP32" names="844">
					<dim>72</dim>
					<dim>24</dim>
					<dim>1</dim>
					<dim>1</dim>
				</port>
			</output>
		</layer>
		<layer id="37" name="832" type="Const" version="opset1">
			<data offset="13381124" size="6144" shape="24,64,1,1" element_type="f32"/>
			<output>
				<port id="0" precision="FP32" names="832">
					<dim>24</dim>
					<dim>64</dim>
					<dim>1</dim>
					<dim>1</dim>
				</port>
			</output>
		</layer>
		<layer id="38" name="826" type="Const" version="opset1">
			<data offset="13387268" size="4096" shape="64,16,1,1" element_type="f32"/>
			<output>
				<port id="0" precision="FP32" names="826">
					<dim>64</dim>
					<dim>16</dim>
					<dim>1</dim>
					<dim>1</dim>
				</port>
			</output>
		</layer>
		<layer id="39" name="input.1" type="Parameter" version="opset1">
			<data shape="1,3,224,224" element_type="f32"/>
			<output>
				<port id="0" precision="FP32" names="input.1">
					<dim>1</dim>
					<dim>3</dim>
					<dim>224</dim>
					<dim>224</dim>
				</port>
			</output>
		</layer>
		<layer id="40" name="817" type="Const" version="opset1">
			<data offset="13391364" size="1728" shape="16,3,3,3" element_type="f32"/>
			<output>
				<port id="0" precision="FP32" names="817">
					<dim>16</dim>
					<dim>3</dim>
					<dim>3</dim>
					<dim>3</dim>
				</port>
			</output>
		</layer>
		<layer id="41" name="Conv_0/WithoutBiases" type="Convolution" version="opset1">
			<data auto_pad="explicit" strides="2,2" dilations="1,1" pads_begin="1,1" pads_end="1,1"/>
			<input>
				<port id="0">
					<dim>1</dim>
					<dim>3</dim>
					<dim>224</dim>
					<dim>224</dim>
				</port>
				<port id="1">
					<dim>16</dim>
					<dim>3</dim>
					<dim>3</dim>
					<dim>3</dim>
				</port>
			</input>
			<output>
				<port id="2" precision="FP32">
					<dim>1</dim>
					<dim>16</dim>
					<dim>112</dim>
					<dim>112</dim>
				</port>
			</output>
		</layer>
		<layer id="42" name="Conv_0/Dims6732" type="Const" version="opset1">
			<data offset="13393092" size="64" shape="1,16,1,1" element_type="f32"/>
			<output>
				<port id="0" precision="FP32">
					<dim>1</dim>
					<dim>16</dim>
					<dim>1</dim>
					<dim>1</dim>
				</port>
			</output>
		</layer>
		<layer id="43" name="Conv_0" type="Add" version="opset1">
			<data auto_broadcast="numpy"/>
			<input>
				<port id="0">
					<dim>1</dim>
					<dim>16</dim>
					<dim>112</dim>
					<dim>112</dim>
				</port>
				<port id="1">
					<dim>1</dim>
					<dim>16</dim>
					<dim>1</dim>
					<dim>1</dim>
				</port>
			</input>
			<output>
				<port id="2" precision="FP32" names="816">
					<dim>1</dim>
					<dim>16</dim>
					<dim>112</dim>
					<dim>112</dim>
				</port>
			</output>
		</layer>
		<layer id="44" name="954" type="Const" version="opset1">
			<data offset="13393156" size="4" shape="1,1,1,1" element_type="f32"/>
			<output>
				<port id="0" precision="FP32" names="954">
					<dim>1</dim>
					<dim>1</dim>
					<dim>1</dim>
					<dim>1</dim>
				</port>
			</output>
		</layer>
		<layer id="45" name="Constant_1" type="Const" version="opset1">
			<data offset="13393160" size="4" shape="1,1,1,1" element_type="f32"/>
			<output>
				<port id="0" precision="FP32" names="315">
					<dim>1</dim>
					<dim>1</dim>
					<dim>1</dim>
					<dim>1</dim>
				</port>
			</output>
		</layer>
		<layer id="46" name="Add_2" type="Add" version="opset1">
			<data auto_broadcast="numpy"/>
			<input>
				<port id="0">
					<dim>1</dim>
					<dim>16</dim>
					<dim>112</dim>
					<dim>112</dim>
				</port>
				<port id="1">
					<dim>1</dim>
					<dim>1</dim>
					<dim>1</dim>
					<dim>1</dim>
				</port>
			</input>
			<output>
				<port id="2" precision="FP32" names="316">
					<dim>1</dim>
					<dim>16</dim>
					<dim>112</dim>
					<dim>112</dim>
				</port>
			</output>
		</layer>
		<layer id="47" name="Clip_3" type="Clamp" version="opset1">
			<data max="6.0" min="0.0"/>
			<input>
				<port id="0">
					<dim>1</dim>
					<dim>16</dim>
					<dim>112</dim>
					<dim>112</dim>
				</port>
			</input>
			<output>
				<port id="1" precision="FP32" names="317">
					<dim>1</dim>
					<dim>16</dim>
					<dim>112</dim>
					<dim>112</dim>
				</port>
			</output>
		</layer>
		<layer id="48" name="Div_4" type="Multiply" version="opset1">
			<data auto_broadcast="numpy"/>
			<input>
				<port id="0">
					<dim>1</dim>
					<dim>16</dim>
					<dim>112</dim>
					<dim>112</dim>
				</port>
				<port id="1">
					<dim>1</dim>
					<dim>1</dim>
					<dim>1</dim>
					<dim>1</dim>
				</port>
			</input>
			<output>
				<port id="2" precision="FP32" names="320">
					<dim>1</dim>
					<dim>16</dim>
					<dim>112</dim>
					<dim>112</dim>
				</port>
			</output>
		</layer>
		<layer id="49" name="Mul_5" type="Multiply" version="opset1">
			<data auto_broadcast="numpy"/>
			<input>
				<port id="0">
					<dim>1</dim>
					<dim>16</dim>
					<dim>112</dim>
					<dim>112</dim>
				</port>
				<port id="1">
					<dim>1</dim>
					<dim>16</dim>
					<dim>112</dim>
					<dim>112</dim>
				</port>
			</input>
			<output>
				<port id="2" precision="FP32" names="321">
					<dim>1</dim>
					<dim>16</dim>
					<dim>112</dim>
					<dim>112</dim>
				</port>
			</output>
		</layer>
		<layer id="50" name="823" type="Const" version="opset1">
			<data offset="13393164" size="1024" shape="16,16,1,1" element_type="f32"/>
			<output>
				<port id="0" precision="FP32" names="823">
					<dim>16</dim>
					<dim>16</dim>
					<dim>1</dim>
					<dim>1</dim>
				</port>
			</output>
		</layer>
		<layer id="51" name="820" type="Const" version="opset1">
			<data offset="13394188" size="576" shape="16,1,1,3,3" element_type="f32"/>
			<output>
				<port id="0" precision="FP32" names="820">
					<dim>16</dim>
					<dim>1</dim>
					<dim>1</dim>
					<dim>3</dim>
					<dim>3</dim>
				</port>
			</output>
		</layer>
		<layer id="52" name="Conv_6/WithoutBiases" type="GroupConvolution" version="opset1">
			<data auto_pad="explicit" strides="1,1" dilations="1,1" pads_begin="1,1" pads_end="1,1"/>
			<input>
				<port id="0">
					<dim>1</dim>
					<dim>16</dim>
					<dim>112</dim>
					<dim>112</dim>
				</port>
				<port id="1">
					<dim>16</dim>
					<dim>1</dim>
					<dim>1</dim>
					<dim>3</dim>
					<dim>3</dim>
				</port>
			</input>
			<output>
				<port id="2" precision="FP32">
					<dim>1</dim>
					<dim>16</dim>
					<dim>112</dim>
					<dim>112</dim>
				</port>
			</output>
		</layer>
		<layer id="53" name="Conv_6/Dims6684" type="Const" version="opset1">
			<data offset="13394764" size="64" shape="1,16,1,1" element_type="f32"/>
			<output>
				<port id="0" precision="FP32">
					<dim>1</dim>
					<dim>16</dim>
					<dim>1</dim>
					<dim>1</dim>
				</port>
			</output>
		</layer>
		<layer id="54" name="Conv_6" type="Add" version="opset1">
			<data auto_broadcast="numpy"/>
			<input>
				<port id="0">
					<dim>1</dim>
					<dim>16</dim>
					<dim>112</dim>
					<dim>112</dim>
				</port>
				<port id="1">
					<dim>1</dim>
					<dim>16</dim>
					<dim>1</dim>
					<dim>1</dim>
				</port>
			</input>
			<output>
				<port id="2" precision="FP32" names="819">
					<dim>1</dim>
					<dim>16</dim>
					<dim>112</dim>
					<dim>112</dim>
				</port>
			</output>
		</layer>
		<layer id="55" name="Relu_7" type="ReLU" version="opset1">
			<input>
				<port id="0">
					<dim>1</dim>
					<dim>16</dim>
					<dim>112</dim>
					<dim>112</dim>
				</port>
			</input>
			<output>
				<port id="1" precision="FP32" names="324">
					<dim>1</dim>
					<dim>16</dim>
					<dim>112</dim>
					<dim>112</dim>
				</port>
			</output>
		</layer>
		<layer id="56" name="Conv_8/WithoutBiases" type="Convolution" version="opset1">
			<data auto_pad="explicit" strides="1,1" dilations="1,1" pads_begin="0,0" pads_end="0,0"/>
			<input>
				<port id="0">
					<dim>1</dim>
					<dim>16</dim>
					<dim>112</dim>
					<dim>112</dim>
				</port>
				<port id="1">
					<dim>16</dim>
					<dim>16</dim>
					<dim>1</dim>
					<dim>1</dim>
				</port>
			</input>
			<output>
				<port id="2" precision="FP32">
					<dim>1</dim>
					<dim>16</dim>
					<dim>112</dim>
					<dim>112</dim>
				</port>
			</output>
		</layer>
		<layer id="57" name="Conv_8/Dims6804" type="Const" version="opset1">
			<data offset="13394828" size="64" shape="1,16,1,1" element_type="f32"/>
			<output>
				<port id="0" precision="FP32">
					<dim>1</dim>
					<dim>16</dim>
					<dim>1</dim>
					<dim>1</dim>
				</port>
			</output>
		</layer>
		<layer id="58" name="Conv_8" type="Add" version="opset1">
			<data auto_broadcast="numpy"/>
			<input>
				<port id="0">
					<dim>1</dim>
					<dim>16</dim>
					<dim>112</dim>
					<dim>112</dim>
				</port>
				<port id="1">
					<dim>1</dim>
					<dim>16</dim>
					<dim>1</dim>
					<dim>1</dim>
				</port>
			</input>
			<output>
				<port id="2" precision="FP32" names="822">
					<dim>1</dim>
					<dim>16</dim>
					<dim>112</dim>
					<dim>112</dim>
				</port>
			</output>
		</layer>
		<layer id="59" name="Add_9" type="Add" version="opset1">
			<data auto_broadcast="numpy"/>
			<input>
				<port id="0">
					<dim>1</dim>
					<dim>16</dim>
					<dim>112</dim>
					<dim>112</dim>
				</port>
				<port id="1">
					<dim>1</dim>
					<dim>16</dim>
					<dim>112</dim>
					<dim>112</dim>
				</port>
			</input>
			<output>
				<port id="2" precision="FP32" names="327">
					<dim>1</dim>
					<dim>16</dim>
					<dim>112</dim>
					<dim>112</dim>
				</port>
			</output>
		</layer>
		<layer id="60" name="Conv_10/WithoutBiases" type="Convolution" version="opset1">
			<data auto_pad="explicit" strides="1,1" dilations="1,1" pads_begin="0,0" pads_end="0,0"/>
			<input>
				<port id="0">
					<dim>1</dim>
					<dim>16</dim>
					<dim>112</dim>
					<dim>112</dim>
				</port>
				<port id="1">
					<dim>64</dim>
					<dim>16</dim>
					<dim>1</dim>
					<dim>1</dim>
				</port>
			</input>
			<output>
				<port id="2" precision="FP32">
					<dim>1</dim>
					<dim>64</dim>
					<dim>112</dim>
					<dim>112</dim>
				</port>
			</output>
		</layer>
		<layer id="61" name="Conv_10/Dims6546" type="Const" version="opset1">
			<data offset="13394892" size="256" shape="1,64,1,1" element_type="f32"/>
			<output>
				<port id="0" precision="FP32">
					<dim>1</dim>
					<dim>64</dim>
					<dim>1</dim>
					<dim>1</dim>
				</port>
			</output>
		</layer>
		<layer id="62" name="Conv_10" type="Add" version="opset1">
			<data auto_broadcast="numpy"/>
			<input>
				<port id="0">
					<dim>1</dim>
					<dim>64</dim>
					<dim>112</dim>
					<dim>112</dim>
				</port>
				<port id="1">
					<dim>1</dim>
					<dim>64</dim>
					<dim>1</dim>
					<dim>1</dim>
				</port>
			</input>
			<output>
				<port id="2" precision="FP32" names="825">
					<dim>1</dim>
					<dim>64</dim>
					<dim>112</dim>
					<dim>112</dim>
				</port>
			</output>
		</layer>
		<layer id="63" name="Relu_11" type="ReLU" version="opset1">
			<input>
				<port id="0">
					<dim>1</dim>
					<dim>64</dim>
					<dim>112</dim>
					<dim>112</dim>
				</port>
			</input>
			<output>
				<port id="1" precision="FP32" names="330">
					<dim>1</dim>
					<dim>64</dim>
					<dim>112</dim>
					<dim>112</dim>
				</port>
			</output>
		</layer>
		<layer id="64" name="829" type="Const" version="opset1">
			<data offset="13395148" size="2304" shape="64,1,1,3,3" element_type="f32"/>
			<output>
				<port id="0" precision="FP32" names="829">
					<dim>64</dim>
					<dim>1</dim>
					<dim>1</dim>
					<dim>3</dim>
					<dim>3</dim>
				</port>
			</output>
		</layer>
		<layer id="65" name="Conv_12/WithoutBiases" type="GroupConvolution" version="opset1">
			<data auto_pad="explicit" strides="2,2" dilations="1,1" pads_begin="1,1" pads_end="1,1"/>
			<input>
				<port id="0">
					<dim>1</dim>
					<dim>64</dim>
					<dim>112</dim>
					<dim>112</dim>
				</port>
				<port id="1">
					<dim>64</dim>
					<dim>1</dim>
					<dim>1</dim>
					<dim>3</dim>
					<dim>3</dim>
				</port>
			</input>
			<output>
				<port id="2" precision="FP32">
					<dim>1</dim>
					<dim>64</dim>
					<dim>56</dim>
					<dim>56</dim>
				</port>
			</output>
		</layer>
		<layer id="66" name="Conv_12/Dims6558" type="Const" version="opset1">
			<data offset="13397452" size="256" shape="1,64,1,1" element_type="f32"/>
			<output>
				<port id="0" precision="FP32">
					<dim>1</dim>
					<dim>64</dim>
					<dim>1</dim>
					<dim>1</dim>
				</port>
			</output>
		</layer>
		<layer id="67" name="Conv_12" type="Add" version="opset1">
			<data auto_broadcast="numpy"/>
			<input>
				<port id="0">
					<dim>1</dim>
					<dim>64</dim>
					<dim>56</dim>
					<dim>56</dim>
				</port>
				<port id="1">
					<dim>1</dim>
					<dim>64</dim>
					<dim>1</dim>
					<dim>1</dim>
				</port>
			</input>
			<output>
				<port id="2" precision="FP32" names="828">
					<dim>1</dim>
					<dim>64</dim>
					<dim>56</dim>
					<dim>56</dim>
				</port>
			</output>
		</layer>
		<layer id="68" name="Relu_13" type="ReLU" version="opset1">
			<input>
				<port id="0">
					<dim>1</dim>
					<dim>64</dim>
					<dim>56</dim>
					<dim>56</dim>
				</port>
			</input>
			<output>
				<port id="1" precision="FP32" names="333">
					<dim>1</dim>
					<dim>64</dim>
					<dim>56</dim>
					<dim>56</dim>
				</port>
			</output>
		</layer>
		<layer id="69" name="Conv_14/WithoutBiases" type="Convolution" version="opset1">
			<data auto_pad="explicit" strides="1,1" dilations="1,1" pads_begin="0,0" pads_end="0,0"/>
			<input>
				<port id="0">
					<dim>1</dim>
					<dim>64</dim>
					<dim>56</dim>
					<dim>56</dim>
				</port>
				<port id="1">
					<dim>24</dim>
					<dim>64</dim>
					<dim>1</dim>
					<dim>1</dim>
				</port>
			</input>
			<output>
				<port id="2" precision="FP32">
					<dim>1</dim>
					<dim>24</dim>
					<dim>56</dim>
					<dim>56</dim>
				</port>
			</output>
		</layer>
		<layer id="70" name="Conv_14/Dims6630" type="Const" version="opset1">
			<data offset="13397708" size="96" shape="1,24,1,1" element_type="f32"/>
			<output>
				<port id="0" precision="FP32">
					<dim>1</dim>
					<dim>24</dim>
					<dim>1</dim>
					<dim>1</dim>
				</port>
			</output>
		</layer>
		<layer id="71" name="Conv_14" type="Add" version="opset1">
			<data auto_broadcast="numpy"/>
			<input>
				<port id="0">
					<dim>1</dim>
					<dim>24</dim>
					<dim>56</dim>
					<dim>56</dim>
				</port>
				<port id="1">
					<dim>1</dim>
					<dim>24</dim>
					<dim>1</dim>
					<dim>1</dim>
				</port>
			</input>
			<output>
				<port id="2" precision="FP32" names="831">
					<dim>1</dim>
					<dim>24</dim>
					<dim>56</dim>
					<dim>56</dim>
				</port>
			</output>
		</layer>
		<layer id="72" name="841" type="Const" version="opset1">
			<data offset="13397804" size="6912" shape="24,72,1,1" element_type="f32"/>
			<output>
				<port id="0" precision="FP32" names="841">
					<dim>24</dim>
					<dim>72</dim>
					<dim>1</dim>
					<dim>1</dim>
				</port>
			</output>
		</layer>
		<layer id="73" name="835" type="Const" version="opset1">
			<data offset="13404716" size="6912" shape="72,24,1,1" element_type="f32"/>
			<output>
				<port id="0" precision="FP32" names="835">
					<dim>72</dim>
					<dim>24</dim>
					<dim>1</dim>
					<dim>1</dim>
				</port>
			</output>
		</layer>
		<layer id="74" name="Conv_15/WithoutBiases" type="Convolution" version="opset1">
			<data auto_pad="explicit" strides="1,1" dilations="1,1" pads_begin="0,0" pads_end="0,0"/>
			<input>
				<port id="0">
					<dim>1</dim>
					<dim>24</dim>
					<dim>56</dim>
					<dim>56</dim>
				</port>
				<port id="1">
					<dim>72</dim>
					<dim>24</dim>
					<dim>1</dim>
					<dim>1</dim>
				</port>
			</input>
			<output>
				<port id="2" precision="FP32">
					<dim>1</dim>
					<dim>72</dim>
					<dim>56</dim>
					<dim>56</dim>
				</port>
			</output>
		</layer>
		<layer id="75" name="Conv_15/Dims6648" type="Const" version="opset1">
			<data offset="13411628" size="288" shape="1,72,1,1" element_type="f32"/>
			<output>
				<port id="0" precision="FP32">
					<dim>1</dim>
					<dim>72</dim>
					<dim>1</dim>
					<dim>1</dim>
				</port>
			</output>
		</layer>
		<layer id="76" name="Conv_15" type="Add" version="opset1">
			<data auto_broadcast="numpy"/>
			<input>
				<port id="0">
					<dim>1</dim>
					<dim>72</dim>
					<dim>56</dim>
					<dim>56</dim>
				</port>
				<port id="1">
					<dim>1</dim>
					<dim>72</dim>
					<dim>1</dim>
					<dim>1</dim>
				</port>
			</input>
			<output>
				<port id="2" precision="FP32" names="834">
					<dim>1</dim>
					<dim>72</dim>
					<dim>56</dim>
					<dim>56</dim>
				</port>
			</output>
		</layer>
		<layer id="77" name="Relu_16" type="ReLU" version="opset1">
			<input>
				<port id="0">
					<dim>1</dim>
					<dim>72</dim>
					<dim>56</dim>
					<dim>56</dim>
				</port>
			</input>
			<output>
				<port id="1" precision="FP32" names="338">
					<dim>1</dim>
					<dim>72</dim>
					<dim>56</dim>
					<dim>56</dim>
				</port>
			</output>
		</layer>
		<layer id="78" name="838" type="Const" version="opset1">
			<data offset="13411916" size="2592" shape="72,1,1,3,3" element_type="f32"/>
			<output>
				<port id="0" precision="FP32" names="838">
					<dim>72</dim>
					<dim>1</dim>
					<dim>1</dim>
					<dim>3</dim>
					<dim>3</dim>
				</port>
			</output>
		</layer>
		<layer id="79" name="Conv_17/WithoutBiases" type="GroupConvolution" version="opset1">
			<data auto_pad="explicit" strides="1,1" dilations="1,1" pads_begin="1,1" pads_end="1,1"/>
			<input>
				<port id="0">
					<dim>1</dim>
					<dim>72</dim>
					<dim>56</dim>
					<dim>56</dim>
				</port>
				<port id="1">
					<dim>72</dim>
					<dim>1</dim>
					<dim>1</dim>
					<dim>3</dim>
					<dim>3</dim>
				</port>
			</input>
			<output>
				<port id="2" precision="FP32">
					<dim>1</dim>
					<dim>72</dim>
					<dim>56</dim>
					<dim>56</dim>
				</port>
			</output>
		</layer>
		<layer id="80" name="Conv_17/Dims6720" type="Const" version="opset1">
			<data offset="13414508" size="288" shape="1,72,1,1" element_type="f32"/>
			<output>
				<port id="0" precision="FP32">
					<dim>1</dim>
					<dim>72</dim>
					<dim>1</dim>
					<dim>1</dim>
				</port>
			</output>
		</layer>
		<layer id="81" name="Conv_17" type="Add" version="opset1">
			<data auto_broadcast="numpy"/>
			<input>
				<port id="0">
					<dim>1</dim>
					<dim>72</dim>
					<dim>56</dim>
					<dim>56</dim>
				</port>
				<port id="1">
					<dim>1</dim>
					<dim>72</dim>
					<dim>1</dim>
					<dim>1</dim>
				</port>
			</input>
			<output>
				<port id="2" precision="FP32" names="837">
					<dim>1</dim>
					<dim>72</dim>
					<dim>56</dim>
					<dim>56</dim>
				</port>
			</output>
		</layer>
		<layer id="82" name="Relu_18" type="ReLU" version="opset1">
			<input>
				<port id="0">
					<dim>1</dim>
					<dim>72</dim>
					<dim>56</dim>
					<dim>56</dim>
				</port>
			</input>
			<output>
				<port id="1" precision="FP32" names="341">
					<dim>1</dim>
					<dim>72</dim>
					<dim>56</dim>
					<dim>56</dim>
				</port>
			</output>
		</layer>
		<layer id="83" name="Conv_19/WithoutBiases" type="Convolution" version="opset1">
			<data auto_pad="explicit" strides="1,1" dilations="1,1" pads_begin="0,0" pads_end="0,0"/>
			<input>
				<port id="0">
					<dim>1</dim>
					<dim>72</dim>
					<dim>56</dim>
					<dim>56</dim>
				</port>
				<port id="1">
					<dim>24</dim>
					<dim>72</dim>
					<dim>1</dim>
					<dim>1</dim>
				</port>
			</input>
			<output>
				<port id="2" precision="FP32">
					<dim>1</dim>
					<dim>24</dim>
					<dim>56</dim>
					<dim>56</dim>
				</port>
			</output>
		</layer>
		<layer id="84" name="Conv_19/Dims6744" type="Const" version="opset1">
			<data offset="13414796" size="96" shape="1,24,1,1" element_type="f32"/>
			<output>
				<port id="0" precision="FP32">
					<dim>1</dim>
					<dim>24</dim>
					<dim>1</dim>
					<dim>1</dim>
				</port>
			</output>
		</layer>
		<layer id="85" name="Conv_19" type="Add" version="opset1">
			<data auto_broadcast="numpy"/>
			<input>
				<port id="0">
					<dim>1</dim>
					<dim>24</dim>
					<dim>56</dim>
					<dim>56</dim>
				</port>
				<port id="1">
					<dim>1</dim>
					<dim>24</dim>
					<dim>1</dim>
					<dim>1</dim>
				</port>
			</input>
			<output>
				<port id="2" precision="FP32" names="840">
					<dim>1</dim>
					<dim>24</dim>
					<dim>56</dim>
					<dim>56</dim>
				</port>
			</output>
		</layer>
		<layer id="86" name="Add_20" type="Add" version="opset1">
			<data auto_broadcast="numpy"/>
			<input>
				<port id="0">
					<dim>1</dim>
					<dim>24</dim>
					<dim>56</dim>
					<dim>56</dim>
				</port>
				<port id="1">
					<dim>1</dim>
					<dim>24</dim>
					<dim>56</dim>
					<dim>56</dim>
				</port>
			</input>
			<output>
				<port id="2" precision="FP32" names="344">
					<dim>1</dim>
					<dim>24</dim>
					<dim>56</dim>
					<dim>56</dim>
				</port>
			</output>
		</layer>
		<layer id="87" name="Conv_21/WithoutBiases" type="Convolution" version="opset1">
			<data auto_pad="explicit" strides="1,1" dilations="1,1" pads_begin="0,0" pads_end="0,0"/>
			<input>
				<port id="0">
					<dim>1</dim>
					<dim>24</dim>
					<dim>56</dim>
					<dim>56</dim>
				</port>
				<port id="1">
					<dim>72</dim>
					<dim>24</dim>
					<dim>1</dim>
					<dim>1</dim>
				</port>
			</input>
			<output>
				<port id="2" precision="FP32">
					<dim>1</dim>
					<dim>72</dim>
					<dim>56</dim>
					<dim>56</dim>
				</port>
			</output>
		</layer>
		<layer id="88" name="Conv_21/Dims6798" type="Const" version="opset1">
			<data offset="13414892" size="288" shape="1,72,1,1" element_type="f32"/>
			<output>
				<port id="0" precision="FP32">
					<dim>1</dim>
					<dim>72</dim>
					<dim>1</dim>
					<dim>1</dim>
				</port>
			</output>
		</layer>
		<layer id="89" name="Conv_21" type="Add" version="opset1">
			<data auto_broadcast="numpy"/>
			<input>
				<port id="0">
					<dim>1</dim>
					<dim>72</dim>
					<dim>56</dim>
					<dim>56</dim>
				</port>
				<port id="1">
					<dim>1</dim>
					<dim>72</dim>
					<dim>1</dim>
					<dim>1</dim>
				</port>
			</input>
			<output>
				<port id="2" precision="FP32" names="843">
					<dim>1</dim>
					<dim>72</dim>
					<dim>56</dim>
					<dim>56</dim>
				</port>
			</output>
		</layer>
		<layer id="90" name="Relu_22" type="ReLU" version="opset1">
			<input>
				<port id="0">
					<dim>1</dim>
					<dim>72</dim>
					<dim>56</dim>
					<dim>56</dim>
				</port>
			</input>
			<output>
				<port id="1" precision="FP32" names="347">
					<dim>1</dim>
					<dim>72</dim>
					<dim>56</dim>
					<dim>56</dim>
				</port>
			</output>
		</layer>
		<layer id="91" name="847" type="Const" version="opset1">
			<data offset="13415180" size="7200" shape="72,1,1,5,5" element_type="f32"/>
			<output>
				<port id="0" precision="FP32" names="847">
					<dim>72</dim>
					<dim>1</dim>
					<dim>1</dim>
					<dim>5</dim>
					<dim>5</dim>
				</port>
			</output>
		</layer>
		<layer id="92" name="Conv_23/WithoutBiases" type="GroupConvolution" version="opset1">
			<data auto_pad="explicit" strides="2,2" dilations="1,1" pads_begin="2,2" pads_end="2,2"/>
			<input>
				<port id="0">
					<dim>1</dim>
					<dim>72</dim>
					<dim>56</dim>
					<dim>56</dim>
				</port>
				<port id="1">
					<dim>72</dim>
					<dim>1</dim>
					<dim>1</dim>
					<dim>5</dim>
					<dim>5</dim>
				</port>
			</input>
			<output>
				<port id="2" precision="FP32">
					<dim>1</dim>
					<dim>72</dim>
					<dim>28</dim>
					<dim>28</dim>
				</port>
			</output>
		</layer>
		<layer id="93" name="Conv_23/Dims6666" type="Const" version="opset1">
			<data offset="13422380" size="288" shape="1,72,1,1" element_type="f32"/>
			<output>
				<port id="0" precision="FP32">
					<dim>1</dim>
					<dim>72</dim>
					<dim>1</dim>
					<dim>1</dim>
				</port>
			</output>
		</layer>
		<layer id="94" name="Conv_23" type="Add" version="opset1">
			<data auto_broadcast="numpy"/>
			<input>
				<port id="0">
					<dim>1</dim>
					<dim>72</dim>
					<dim>28</dim>
					<dim>28</dim>
				</port>
				<port id="1">
					<dim>1</dim>
					<dim>72</dim>
					<dim>1</dim>
					<dim>1</dim>
				</port>
			</input>
			<output>
				<port id="2" precision="FP32" names="846">
					<dim>1</dim>
					<dim>72</dim>
					<dim>28</dim>
					<dim>28</dim>
				</port>
			</output>
		</layer>
		<layer id="95" name="610" type="Const" version="opset1">
			<data offset="13422668" size="8" shape="" element_type="i64"/>
			<output>
				<port id="0" precision="I64"/>
			</output>
		</layer>
		<layer id="96" name="612" type="Const" version="opset1">
			<data offset="13422676" size="8" shape="" element_type="i64"/>
			<output>
				<port id="0" precision="I64"/>
			</output>
		</layer>
		<layer id="97" name="GlobalAveragePool_30/input_rank/shape_of" type="ShapeOf" version="opset3">
			<data output_type="i64"/>
			<input>
				<port id="0">
					<dim>1</dim>
					<dim>72</dim>
					<dim>28</dim>
					<dim>28</dim>
				</port>
			</input>
			<output>
				<port id="1" precision="I64">
					<dim>4</dim>
				</port>
			</output>
		</layer>
		<layer id="98" name="GlobalAveragePool_30/input_rank/rank_of" type="ShapeOf" version="opset3">
			<data output_type="i64"/>
			<input>
				<port id="0">
					<dim>4</dim>
				</port>
			</input>
			<output>
				<port id="1" precision="I64">
					<dim>1</dim>
				</port>
			</output>
		</layer>
		<layer id="99" name="GlobalAveragePool_30/input_rank/0d_rank_of/value" type="Const" version="opset1">
			<data offset="13422684" size="8" shape="1" element_type="i64"/>
			<output>
				<port id="0" precision="I64">
					<dim>1</dim>
				</port>
			</output>
		</layer>
		<layer id="100" name="GlobalAveragePool_30/input_rank" type="Squeeze" version="opset1">
			<input>
				<port id="0">
					<dim>1</dim>
				</port>
				<port id="1">
					<dim>1</dim>
				</port>
			</input>
			<output>
				<port id="2" precision="I64"/>
			</output>
		</layer>
		<layer id="101" name="GlobalAveragePool_30/global_pooling_reduce_axis" type="Range" version="opset4">
			<data output_type="i64"/>
			<input>
				<port id="0"/>
				<port id="1"/>
				<port id="2"/>
			</input>
			<output>
				<port id="3" precision="I64">
					<dim>2</dim>
				</port>
			</output>
		</layer>
		<layer id="102" name="GlobalAveragePool_30/reduce" type="ReduceMean" version="opset1">
			<data keep_dims="true"/>
			<input>
				<port id="0">
					<dim>1</dim>
					<dim>72</dim>
					<dim>28</dim>
					<dim>28</dim>
				</port>
				<port id="1">
					<dim>2</dim>
				</port>
			</input>
			<output>
				<port id="2" precision="FP32" names="356">
					<dim>1</dim>
					<dim>72</dim>
					<dim>1</dim>
					<dim>1</dim>
				</port>
			</output>
		</layer>
		<layer id="103" name="Unsqueeze_31/Dims" type="Const" version="opset1">
			<data offset="13422684" size="8" shape="1" element_type="i64"/>
			<output>
				<port id="0" precision="I64">
					<dim>1</dim>
				</port>
			</output>
		</layer>
		<layer id="104" name="Shape_24" type="ShapeOf" version="opset3">
			<data output_type="i64"/>
			<input>
				<port id="0">
					<dim>1</dim>
					<dim>72</dim>
					<dim>28</dim>
					<dim>28</dim>
				</port>
			</input>
			<output>
				<port id="1" precision="I64" names="350">
					<dim>4</dim>
				</port>
			</output>
		</layer>
		<layer id="105" name="Constant_25" type="Const" version="opset1">
			<data offset="13422692" size="4" shape="" element_type="i32"/>
			<output>
				<port id="0" precision="I32" names="351"/>
			</output>
		</layer>
		<layer id="106" name="Gather_26/axis" type="Const" version="opset1">
			<data offset="13422684" size="8" shape="" element_type="i64"/>
			<output>
				<port id="0" precision="I64"/>
			</output>
		</layer>
		<layer id="107" name="Gather_26741" type="Gather" version="opset7">
			<data batch_dims="0"/>
			<input>
				<port id="0">
					<dim>4</dim>
				</port>
				<port id="1"/>
				<port id="2"/>
			</input>
			<output>
				<port id="3" precision="I64" names="352"/>
			</output>
		</layer>
		<layer id="108" name="Unsqueeze_31/Unsqueeze" type="Unsqueeze" version="opset1">
			<input>
				<port id="0"/>
				<port id="1">
					<dim>1</dim>
				</port>
			</input>
			<output>
				<port id="2" precision="I64" names="357">
					<dim>1</dim>
				</port>
			</output>
		</layer>
		<layer id="109" name="Unsqueeze_32/Dims" type="Const" version="opset1">
			<data offset="13422684" size="8" shape="1" element_type="i64"/>
			<output>
				<port id="0" precision="I64">
					<dim>1</dim>
				</port>
			</output>
		</layer>
		<layer id="110" name="Shape_27" type="ShapeOf" version="opset3">
			<data output_type="i64"/>
			<input>
				<port id="0">
					<dim>1</dim>
					<dim>72</dim>
					<dim>28</dim>
					<dim>28</dim>
				</port>
			</input>
			<output>
				<port id="1" precision="I64" names="353">
					<dim>4</dim>
				</port>
			</output>
		</layer>
		<layer id="111" name="Constant_28" type="Const" version="opset1">
			<data offset="13422696" size="4" shape="" element_type="i32"/>
			<output>
				<port id="0" precision="I32" names="354"/>
			</output>
		</layer>
		<layer id="112" name="Gather_29/axis" type="Const" version="opset1">
			<data offset="13422684" size="8" shape="" element_type="i64"/>
			<output>
				<port id="0" precision="I64"/>
			</output>
		</layer>
		<layer id="113" name="Gather_29711" type="Gather" version="opset7">
			<data batch_dims="0"/>
			<input>
				<port id="0">
					<dim>4</dim>
				</port>
				<port id="1"/>
				<port id="2"/>
			</input>
			<output>
				<port id="3" precision="I64" names="355"/>
			</output>
		</layer>
		<layer id="114" name="Unsqueeze_32/Unsqueeze" type="Unsqueeze" version="opset1">
			<input>
				<port id="0"/>
				<port id="1">
					<dim>1</dim>
				</port>
			</input>
			<output>
				<port id="2" precision="I64" names="358">
					<dim>1</dim>
				</port>
			</output>
		</layer>
		<layer id="115" name="Concat_33" type="Concat" version="opset1">
			<data axis="0"/>
			<input>
				<port id="0">
					<dim>1</dim>
				</port>
				<port id="1">
					<dim>1</dim>
				</port>
			</input>
			<output>
				<port id="2" precision="I64" names="359">
					<dim>2</dim>
				</port>
			</output>
		</layer>
		<layer id="116" name="Reshape_34" type="Reshape" version="opset1">
			<data special_zero="true"/>
			<input>
				<port id="0">
					<dim>1</dim>
					<dim>72</dim>
					<dim>1</dim>
					<dim>1</dim>
				</port>
				<port id="1">
					<dim>2</dim>
				</port>
			</input>
			<output>
				<port id="2" precision="FP32" names="360">
					<dim>1</dim>
					<dim>72</dim>
				</port>
			</output>
		</layer>
		<layer id="117" name="Gemm_35/WithoutBiases" type="MatMul" version="opset1">
			<data transpose_a="false" transpose_b="true"/>
			<input>
				<port id="0">
					<dim>1</dim>
					<dim>72</dim>
				</port>
				<port id="1">
					<dim>24</dim>
					<dim>72</dim>
				</port>
			</input>
			<output>
				<port id="2" precision="FP32">
					<dim>1</dim>
					<dim>24</dim>
				</port>
			</output>
		</layer>
		<layer id="118" name="features.4.conv.5.fc.0.bias" type="Const" version="opset1">
			<data offset="13422700" size="96" shape="1,24" element_type="f32"/>
			<output>
				<port id="0" precision="FP32" names="features.4.conv.5.fc.0.bias">
					<dim>1</dim>
					<dim>24</dim>
				</port>
			</output>
		</layer>
		<layer id="119" name="Gemm_35" type="Add" version="opset1">
			<data auto_broadcast="numpy"/>
			<input>
				<port id="0">
					<dim>1</dim>
					<dim>24</dim>
				</port>
				<port id="1">
					<dim>1</dim>
					<dim>24</dim>
				</port>
			</input>
			<output>
				<port id="2" precision="FP32" names="361">
					<dim>1</dim>
					<dim>24</dim>
				</port>
			</output>
		</layer>
		<layer id="120" name="Relu_36" type="ReLU" version="opset1">
			<input>
				<port id="0">
					<dim>1</dim>
					<dim>24</dim>
				</port>
			</input>
			<output>
				<port id="1" precision="FP32" names="362">
					<dim>1</dim>
					<dim>24</dim>
				</port>
			</output>
		</layer>
		<layer id="121" name="Gemm_37/WithoutBiases" type="MatMul" version="opset1">
			<data transpose_a="false" transpose_b="true"/>
			<input>
				<port id="0">
					<dim>1</dim>
					<dim>24</dim>
				</port>
				<port id="1">
					<dim>72</dim>
					<dim>24</dim>
				</port>
			</input>
			<output>
				<port id="2" precision="FP32">
					<dim>1</dim>
					<dim>72</dim>
				</port>
			</output>
		</layer>
		<layer id="122" name="data_add_10886" type="Const" version="opset1">
			<data offset="13422796" size="288" shape="1,72" element_type="f32"/>
			<output>
				<port id="0" precision="FP32">
					<dim>1</dim>
					<dim>72</dim>
				</port>
			</output>
		</layer>
		<layer id="123" name="Gemm_37/Fused_Add_" type="Add" version="opset1">
			<data auto_broadcast="numpy"/>
			<input>
				<port id="0">
					<dim>1</dim>
					<dim>72</dim>
				</port>
				<port id="1">
					<dim>1</dim>
					<dim>72</dim>
				</port>
			</input>
			<output>
				<port id="2" precision="FP32" names="365">
					<dim>1</dim>
					<dim>72</dim>
				</port>
			</output>
		</layer>
		<layer id="124" name="Clip_40" type="Clamp" version="opset1">
			<data max="6.0" min="0.0"/>
			<input>
				<port id="0">
					<dim>1</dim>
					<dim>72</dim>
				</port>
			</input>
			<output>
				<port id="1" precision="FP32" names="366">
					<dim>1</dim>
					<dim>72</dim>
				</port>
			</output>
		</layer>
		<layer id="125" name="Div_41" type="Multiply" version="opset1">
			<data auto_broadcast="numpy"/>
			<input>
				<port id="0">
					<dim>1</dim>
					<dim>72</dim>
				</port>
				<port id="1">
					<dim>1</dim>
					<dim>1</dim>
				</port>
			</input>
			<output>
				<port id="2" precision="FP32" names="369">
					<dim>1</dim>
					<dim>72</dim>
				</port>
			</output>
		</layer>
		<layer id="126" name="956" type="Const" version="opset1">
			<data offset="13422676" size="8" shape="1" element_type="i64"/>
			<output>
				<port id="0" precision="I64" names="956">
					<dim>1</dim>
				</port>
			</output>
		</layer>
		<layer id="127" name="957" type="Const" version="opset1">
			<data offset="13422676" size="8" shape="1" element_type="i64"/>
			<output>
				<port id="0" precision="I64" names="957">
					<dim>1</dim>
				</port>
			</output>
		</layer>
		<layer id="128" name="Unsqueeze_42/Dims" type="Const" version="opset1">
			<data offset="13422684" size="8" shape="1" element_type="i64"/>
			<output>
				<port id="0" precision="I64">
					<dim>1</dim>
				</port>
			</output>
		</layer>
		<layer id="129" name="Unsqueeze_42/Unsqueeze" type="Unsqueeze" version="opset1">
			<input>
				<port id="0"/>
				<port id="1">
					<dim>1</dim>
				</port>
			</input>
			<output>
				<port id="2" precision="I64" names="372">
					<dim>1</dim>
				</port>
			</output>
		</layer>
		<layer id="130" name="Unsqueeze_43/Dims" type="Const" version="opset1">
			<data offset="13422684" size="8" shape="1" element_type="i64"/>
			<output>
				<port id="0" precision="I64">
					<dim>1</dim>
				</port>
			</output>
		</layer>
		<layer id="131" name="Unsqueeze_43/Unsqueeze" type="Unsqueeze" version="opset1">
			<input>
				<port id="0"/>
				<port id="1">
					<dim>1</dim>
				</port>
			</input>
			<output>
				<port id="2" precision="I64" names="373">
					<dim>1</dim>
				</port>
			</output>
		</layer>
		<layer id="132" name="Concat_44" type="Concat" version="opset1">
			<data axis="0"/>
			<input>
				<port id="0">
					<dim>1</dim>
				</port>
				<port id="1">
					<dim>1</dim>
				</port>
				<port id="2">
					<dim>1</dim>
				</port>
				<port id="3">
					<dim>1</dim>
				</port>
			</input>
			<output>
				<port id="4" precision="I64" names="376">
					<dim>4</dim>
				</port>
			</output>
		</layer>
		<layer id="133" name="Reshape_45" type="Reshape" version="opset1">
			<data special_zero="true"/>
			<input>
				<port id="0">
					<dim>1</dim>
					<dim>72</dim>
				</port>
				<port id="1">
					<dim>4</dim>
				</port>
			</input>
			<output>
				<port id="2" precision="FP32" names="377">
					<dim>1</dim>
					<dim>72</dim>
					<dim>1</dim>
					<dim>1</dim>
				</port>
			</output>
		</layer>
		<layer id="134" name="Mul_46" type="Multiply" version="opset1">
			<data auto_broadcast="numpy"/>
			<input>
				<port id="0">
					<dim>1</dim>
					<dim>72</dim>
					<dim>28</dim>
					<dim>28</dim>
				</port>
				<port id="1">
					<dim>1</dim>
					<dim>72</dim>
					<dim>1</dim>
					<dim>1</dim>
				</port>
			</input>
			<output>
				<port id="2" precision="FP32" names="378">
					<dim>1</dim>
					<dim>72</dim>
					<dim>28</dim>
					<dim>28</dim>
				</port>
			</output>
		</layer>
		<layer id="135" name="Relu_47" type="ReLU" version="opset1">
			<input>
				<port id="0">
					<dim>1</dim>
					<dim>72</dim>
					<dim>28</dim>
					<dim>28</dim>
				</port>
			</input>
			<output>
				<port id="1" precision="FP32" names="379">
					<dim>1</dim>
					<dim>72</dim>
					<dim>28</dim>
					<dim>28</dim>
				</port>
			</output>
		</layer>
		<layer id="136" name="Conv_48/WithoutBiases" type="Convolution" version="opset1">
			<data auto_pad="explicit" strides="1,1" dilations="1,1" pads_begin="0,0" pads_end="0,0"/>
			<input>
				<port id="0">
					<dim>1</dim>
					<dim>72</dim>
					<dim>28</dim>
					<dim>28</dim>
				</port>
				<port id="1">
					<dim>40</dim>
					<dim>72</dim>
					<dim>1</dim>
					<dim>1</dim>
				</port>
			</input>
			<output>
				<port id="2" precision="FP32">
					<dim>1</dim>
					<dim>40</dim>
					<dim>28</dim>
					<dim>28</dim>
				</port>
			</output>
		</layer>
		<layer id="137" name="Conv_48/Dims6792" type="Const" version="opset1">
			<data offset="13423084" size="160" shape="1,40,1,1" element_type="f32"/>
			<output>
				<port id="0" precision="FP32">
					<dim>1</dim>
					<dim>40</dim>
					<dim>1</dim>
					<dim>1</dim>
				</port>
			</output>
		</layer>
		<layer id="138" name="Conv_48" type="Add" version="opset1">
			<data auto_broadcast="numpy"/>
			<input>
				<port id="0">
					<dim>1</dim>
					<dim>40</dim>
					<dim>28</dim>
					<dim>28</dim>
				</port>
				<port id="1">
					<dim>1</dim>
					<dim>40</dim>
					<dim>1</dim>
					<dim>1</dim>
				</port>
			</input>
			<output>
				<port id="2" precision="FP32" names="849">
					<dim>1</dim>
					<dim>40</dim>
					<dim>28</dim>
					<dim>28</dim>
				</port>
			</output>
		</layer>
		<layer id="139" name="Conv_49/WithoutBiases" type="Convolution" version="opset1">
			<data auto_pad="explicit" strides="1,1" dilations="1,1" pads_begin="0,0" pads_end="0,0"/>
			<input>
				<port id="0">
					<dim>1</dim>
					<dim>40</dim>
					<dim>28</dim>
					<dim>28</dim>
				</port>
				<port id="1">
					<dim>120</dim>
					<dim>40</dim>
					<dim>1</dim>
					<dim>1</dim>
				</port>
			</input>
			<output>
				<port id="2" precision="FP32">
					<dim>1</dim>
					<dim>120</dim>
					<dim>28</dim>
					<dim>28</dim>
				</port>
			</output>
		</layer>
		<layer id="140" name="Conv_49/Dims6600" type="Const" version="opset1">
			<data offset="13423244" size="480" shape="1,120,1,1" element_type="f32"/>
			<output>
				<port id="0" precision="FP32">
					<dim>1</dim>
					<dim>120</dim>
					<dim>1</dim>
					<dim>1</dim>
				</port>
			</output>
		</layer>
		<layer id="141" name="Conv_49" type="Add" version="opset1">
			<data auto_broadcast="numpy"/>
			<input>
				<port id="0">
					<dim>1</dim>
					<dim>120</dim>
					<dim>28</dim>
					<dim>28</dim>
				</port>
				<port id="1">
					<dim>1</dim>
					<dim>120</dim>
					<dim>1</dim>
					<dim>1</dim>
				</port>
			</input>
			<output>
				<port id="2" precision="FP32" names="852">
					<dim>1</dim>
					<dim>120</dim>
					<dim>28</dim>
					<dim>28</dim>
				</port>
			</output>
		</layer>
		<layer id="142" name="Relu_50" type="ReLU" version="opset1">
			<input>
				<port id="0">
					<dim>1</dim>
					<dim>120</dim>
					<dim>28</dim>
					<dim>28</dim>
				</port>
			</input>
			<output>
				<port id="1" precision="FP32" names="384">
					<dim>1</dim>
					<dim>120</dim>
					<dim>28</dim>
					<dim>28</dim>
				</port>
			</output>
		</layer>
		<layer id="143" name="856" type="Const" version="opset1">
			<data offset="13423724" size="12000" shape="120,1,1,5,5" element_type="f32"/>
			<output>
				<port id="0" precision="FP32" names="856">
					<dim>120</dim>
					<dim>1</dim>
					<dim>1</dim>
					<dim>5</dim>
					<dim>5</dim>
				</port>
			</output>
		</layer>
		<layer id="144" name="Conv_51/WithoutBiases" type="GroupConvolution" version="opset1">
			<data auto_pad="explicit" strides="1,1" dilations="1,1" pads_begin="2,2" pads_end="2,2"/>
			<input>
				<port id="0">
					<dim>1</dim>
					<dim>120</dim>
					<dim>28</dim>
					<dim>28</dim>
				</port>
				<port id="1">
					<dim>120</dim>
					<dim>1</dim>
					<dim>1</dim>
					<dim>5</dim>
					<dim>5</dim>
				</port>
			</input>
			<output>
				<port id="2" precision="FP32">
					<dim>1</dim>
					<dim>120</dim>
					<dim>28</dim>
					<dim>28</dim>
				</port>
			</output>
		</layer>
		<layer id="145" name="Conv_51/Dims6762" type="Const" version="opset1">
			<data offset="13435724" size="480" shape="1,120,1,1" element_type="f32"/>
			<output>
				<port id="0" precision="FP32">
					<dim>1</dim>
					<dim>120</dim>
					<dim>1</dim>
					<dim>1</dim>
				</port>
			</output>
		</layer>
		<layer id="146" name="Conv_51" type="Add" version="opset1">
			<data auto_broadcast="numpy"/>
			<input>
				<port id="0">
					<dim>1</dim>
					<dim>120</dim>
					<dim>28</dim>
					<dim>28</dim>
				</port>
				<port id="1">
					<dim>1</dim>
					<dim>120</dim>
					<dim>1</dim>
					<dim>1</dim>
				</port>
			</input>
			<output>
				<port id="2" precision="FP32" names="855">
					<dim>1</dim>
					<dim>120</dim>
					<dim>28</dim>
					<dim>28</dim>
				</port>
			</output>
		</layer>
		<layer id="147" name="615" type="Const" version="opset1">
			<data offset="13422668" size="8" shape="" element_type="i64"/>
			<output>
				<port id="0" precision="I64"/>
			</output>
		</layer>
		<layer id="148" name="617" type="Const" version="opset1">
			<data offset="13422676" size="8" shape="" element_type="i64"/>
			<output>
				<port id="0" precision="I64"/>
			</output>
		</layer>
		<layer id="149" name="GlobalAveragePool_58/input_rank/shape_of" type="ShapeOf" version="opset3">
			<data output_type="i64"/>
			<input>
				<port id="0">
					<dim>1</dim>
					<dim>120</dim>
					<dim>28</dim>
					<dim>28</dim>
				</port>
			</input>
			<output>
				<port id="1" precision="I64">
					<dim>4</dim>
				</port>
			</output>
		</layer>
		<layer id="150" name="GlobalAveragePool_58/input_rank/rank_of" type="ShapeOf" version="opset3">
			<data output_type="i64"/>
			<input>
				<port id="0">
					<dim>4</dim>
				</port>
			</input>
			<output>
				<port id="1" precision="I64">
					<dim>1</dim>
				</port>
			</output>
		</layer>
		<layer id="151" name="GlobalAveragePool_58/input_rank/0d_rank_of/value" type="Const" version="opset1">
			<data offset="13422684" size="8" shape="1" element_type="i64"/>
			<output>
				<port id="0" precision="I64">
					<dim>1</dim>
				</port>
			</output>
		</layer>
		<layer id="152" name="GlobalAveragePool_58/input_rank" type="Squeeze" version="opset1">
			<input>
				<port id="0">
					<dim>1</dim>
				</port>
				<port id="1">
					<dim>1</dim>
				</port>
			</input>
			<output>
				<port id="2" precision="I64"/>
			</output>
		</layer>
		<layer id="153" name="GlobalAveragePool_58/global_pooling_reduce_axis" type="Range" version="opset4">
			<data output_type="i64"/>
			<input>
				<port id="0"/>
				<port id="1"/>
				<port id="2"/>
			</input>
			<output>
				<port id="3" precision="I64">
					<dim>2</dim>
				</port>
			</output>
		</layer>
		<layer id="154" name="GlobalAveragePool_58/reduce" type="ReduceMean" version="opset1">
			<data keep_dims="true"/>
			<input>
				<port id="0">
					<dim>1</dim>
					<dim>120</dim>
					<dim>28</dim>
					<dim>28</dim>
				</port>
				<port id="1">
					<dim>2</dim>
				</port>
			</input>
			<output>
				<port id="2" precision="FP32" names="393">
					<dim>1</dim>
					<dim>120</dim>
					<dim>1</dim>
					<dim>1</dim>
				</port>
			</output>
		</layer>
		<layer id="155" name="Unsqueeze_59/Dims" type="Const" version="opset1">
			<data offset="13422684" size="8" shape="1" element_type="i64"/>
			<output>
				<port id="0" precision="I64">
					<dim>1</dim>
				</port>
			</output>
		</layer>
		<layer id="156" name="Shape_52" type="ShapeOf" version="opset3">
			<data output_type="i64"/>
			<input>
				<port id="0">
					<dim>1</dim>
					<dim>120</dim>
					<dim>28</dim>
					<dim>28</dim>
				</port>
			</input>
			<output>
				<port id="1" precision="I64" names="387">
					<dim>4</dim>
				</port>
			</output>
		</layer>
		<layer id="157" name="Constant_53" type="Const" version="opset1">
			<data offset="13422692" size="4" shape="" element_type="i32"/>
			<output>
				<port id="0" precision="I32" names="388"/>
			</output>
		</layer>
		<layer id="158" name="Gather_54/axis" type="Const" version="opset1">
			<data offset="13422684" size="8" shape="" element_type="i64"/>
			<output>
				<port id="0" precision="I64"/>
			</output>
		</layer>
		<layer id="159" name="Gather_54709" type="Gather" version="opset7">
			<data batch_dims="0"/>
			<input>
				<port id="0">
					<dim>4</dim>
				</port>
				<port id="1"/>
				<port id="2"/>
			</input>
			<output>
				<port id="3" precision="I64" names="389"/>
			</output>
		</layer>
		<layer id="160" name="Unsqueeze_59/Unsqueeze" type="Unsqueeze" version="opset1">
			<input>
				<port id="0"/>
				<port id="1">
					<dim>1</dim>
				</port>
			</input>
			<output>
				<port id="2" precision="I64" names="394">
					<dim>1</dim>
				</port>
			</output>
		</layer>
		<layer id="161" name="Unsqueeze_60/Dims" type="Const" version="opset1">
			<data offset="13422684" size="8" shape="1" element_type="i64"/>
			<output>
				<port id="0" precision="I64">
					<dim>1</dim>
				</port>
			</output>
		</layer>
		<layer id="162" name="Shape_55" type="ShapeOf" version="opset3">
			<data output_type="i64"/>
			<input>
				<port id="0">
					<dim>1</dim>
					<dim>120</dim>
					<dim>28</dim>
					<dim>28</dim>
				</port>
			</input>
			<output>
				<port id="1" precision="I64" names="390">
					<dim>4</dim>
				</port>
			</output>
		</layer>
		<layer id="163" name="Constant_56" type="Const" version="opset1">
			<data offset="13422696" size="4" shape="" element_type="i32"/>
			<output>
				<port id="0" precision="I32" names="391"/>
			</output>
		</layer>
		<layer id="164" name="Gather_57/axis" type="Const" version="opset1">
			<data offset="13422684" size="8" shape="" element_type="i64"/>
			<output>
				<port id="0" precision="I64"/>
			</output>
		</layer>
		<layer id="165" name="Gather_57731" type="Gather" version="opset7">
			<data batch_dims="0"/>
			<input>
				<port id="0">
					<dim>4</dim>
				</port>
				<port id="1"/>
				<port id="2"/>
			</input>
			<output>
				<port id="3" precision="I64" names="392"/>
			</output>
		</layer>
		<layer id="166" name="Unsqueeze_60/Unsqueeze" type="Unsqueeze" version="opset1">
			<input>
				<port id="0"/>
				<port id="1">
					<dim>1</dim>
				</port>
			</input>
			<output>
				<port id="2" precision="I64" names="395">
					<dim>1</dim>
				</port>
			</output>
		</layer>
		<layer id="167" name="Concat_61" type="Concat" version="opset1">
			<data axis="0"/>
			<input>
				<port id="0">
					<dim>1</dim>
				</port>
				<port id="1">
					<dim>1</dim>
				</port>
			</input>
			<output>
				<port id="2" precision="I64" names="396">
					<dim>2</dim>
				</port>
			</output>
		</layer>
		<layer id="168" name="Reshape_62" type="Reshape" version="opset1">
			<data special_zero="true"/>
			<input>
				<port id="0">
					<dim>1</dim>
					<dim>120</dim>
					<dim>1</dim>
					<dim>1</dim>
				</port>
				<port id="1">
					<dim>2</dim>
				</port>
			</input>
			<output>
				<port id="2" precision="FP32" names="397">
					<dim>1</dim>
					<dim>120</dim>
				</port>
			</output>
		</layer>
		<layer id="169" name="Gemm_63/WithoutBiases" type="MatMul" version="opset1">
			<data transpose_a="false" transpose_b="true"/>
			<input>
				<port id="0">
					<dim>1</dim>
					<dim>120</dim>
				</port>
				<port id="1">
					<dim>32</dim>
					<dim>120</dim>
				</port>
			</input>
			<output>
				<port id="2" precision="FP32">
					<dim>1</dim>
					<dim>32</dim>
				</port>
			</output>
		</layer>
		<layer id="170" name="features.5.conv.5.fc.0.bias" type="Const" version="opset1">
			<data offset="13436204" size="128" shape="1,32" element_type="f32"/>
			<output>
				<port id="0" precision="FP32" names="features.5.conv.5.fc.0.bias">
					<dim>1</dim>
					<dim>32</dim>
				</port>
			</output>
		</layer>
		<layer id="171" name="Gemm_63" type="Add" version="opset1">
			<data auto_broadcast="numpy"/>
			<input>
				<port id="0">
					<dim>1</dim>
					<dim>32</dim>
				</port>
				<port id="1">
					<dim>1</dim>
					<dim>32</dim>
				</port>
			</input>
			<output>
				<port id="2" precision="FP32" names="398">
					<dim>1</dim>
					<dim>32</dim>
				</port>
			</output>
		</layer>
		<layer id="172" name="Relu_64" type="ReLU" version="opset1">
			<input>
				<port id="0">
					<dim>1</dim>
					<dim>32</dim>
				</port>
			</input>
			<output>
				<port id="1" precision="FP32" names="399">
					<dim>1</dim>
					<dim>32</dim>
				</port>
			</output>
		</layer>
		<layer id="173" name="Gemm_65/WithoutBiases" type="MatMul" version="opset1">
			<data transpose_a="false" transpose_b="true"/>
			<input>
				<port id="0">
					<dim>1</dim>
					<dim>32</dim>
				</port>
				<port id="1">
					<dim>120</dim>
					<dim>32</dim>
				</port>
			</input>
			<output>
				<port id="2" precision="FP32">
					<dim>1</dim>
					<dim>120</dim>
				</port>
			</output>
		</layer>
		<layer id="174" name="data_add_1088810890" type="Const" version="opset1">
			<data offset="13436332" size="480" shape="1,120" element_type="f32"/>
			<output>
				<port id="0" precision="FP32">
					<dim>1</dim>
					<dim>120</dim>
				</port>
			</output>
		</layer>
		<layer id="175" name="Gemm_65/Fused_Add_" type="Add" version="opset1">
			<data auto_broadcast="numpy"/>
			<input>
				<port id="0">
					<dim>1</dim>
					<dim>120</dim>
				</port>
				<port id="1">
					<dim>1</dim>
					<dim>120</dim>
				</port>
			</input>
			<output>
				<port id="2" precision="FP32" names="402">
					<dim>1</dim>
					<dim>120</dim>
				</port>
			</output>
		</layer>
		<layer id="176" name="Clip_68" type="Clamp" version="opset1">
			<data max="6.0" min="0.0"/>
			<input>
				<port id="0">
					<dim>1</dim>
					<dim>120</dim>
				</port>
			</input>
			<output>
				<port id="1" precision="FP32" names="403">
					<dim>1</dim>
					<dim>120</dim>
				</port>
			</output>
		</layer>
		<layer id="177" name="Div_69" type="Multiply" version="opset1">
			<data auto_broadcast="numpy"/>
			<input>
				<port id="0">
					<dim>1</dim>
					<dim>120</dim>
				</port>
				<port id="1">
					<dim>1</dim>
					<dim>1</dim>
				</port>
			</input>
			<output>
				<port id="2" precision="FP32" names="406">
					<dim>1</dim>
					<dim>120</dim>
				</port>
			</output>
		</layer>
		<layer id="178" name="959" type="Const" version="opset1">
			<data offset="13422676" size="8" shape="1" element_type="i64"/>
			<output>
				<port id="0" precision="I64" names="959">
					<dim>1</dim>
				</port>
			</output>
		</layer>
		<layer id="179" name="960" type="Const" version="opset1">
			<data offset="13422676" size="8" shape="1" element_type="i64"/>
			<output>
				<port id="0" precision="I64" names="960">
					<dim>1</dim>
				</port>
			</output>
		</layer>
		<layer id="180" name="Unsqueeze_70/Dims" type="Const" version="opset1">
			<data offset="13422684" size="8" shape="1" element_type="i64"/>
			<output>
				<port id="0" precision="I64">
					<dim>1</dim>
				</port>
			</output>
		</layer>
		<layer id="181" name="Unsqueeze_70/Unsqueeze" type="Unsqueeze" version="opset1">
			<input>
				<port id="0"/>
				<port id="1">
					<dim>1</dim>
				</port>
			</input>
			<output>
				<port id="2" precision="I64" names="409">
					<dim>1</dim>
				</port>
			</output>
		</layer>
		<layer id="182" name="Unsqueeze_71/Dims" type="Const" version="opset1">
			<data offset="13422684" size="8" shape="1" element_type="i64"/>
			<output>
				<port id="0" precision="I64">
					<dim>1</dim>
				</port>
			</output>
		</layer>
		<layer id="183" name="Unsqueeze_71/Unsqueeze" type="Unsqueeze" version="opset1">
			<input>
				<port id="0"/>
				<port id="1">
					<dim>1</dim>
				</port>
			</input>
			<output>
				<port id="2" precision="I64" names="410">
					<dim>1</dim>
				</port>
			</output>
		</layer>
		<layer id="184" name="Concat_72" type="Concat" version="opset1">
			<data axis="0"/>
			<input>
				<port id="0">
					<dim>1</dim>
				</port>
				<port id="1">
					<dim>1</dim>
				</port>
				<port id="2">
					<dim>1</dim>
				</port>
				<port id="3">
					<dim>1</dim>
				</port>
			</input>
			<output>
				<port id="4" precision="I64" names="413">
					<dim>4</dim>
				</port>
			</output>
		</layer>
		<layer id="185" name="Reshape_73" type="Reshape" version="opset1">
			<data special_zero="true"/>
			<input>
				<port id="0">
					<dim>1</dim>
					<dim>120</dim>
				</port>
				<port id="1">
					<dim>4</dim>
				</port>
			</input>
			<output>
				<port id="2" precision="FP32" names="414">
					<dim>1</dim>
					<dim>120</dim>
					<dim>1</dim>
					<dim>1</dim>
				</port>
			</output>
		</layer>
		<layer id="186" name="Mul_74" type="Multiply" version="opset1">
			<data auto_broadcast="numpy"/>
			<input>
				<port id="0">
					<dim>1</dim>
					<dim>120</dim>
					<dim>28</dim>
					<dim>28</dim>
				</port>
				<port id="1">
					<dim>1</dim>
					<dim>120</dim>
					<dim>1</dim>
					<dim>1</dim>
				</port>
			</input>
			<output>
				<port id="2" precision="FP32" names="415">
					<dim>1</dim>
					<dim>120</dim>
					<dim>28</dim>
					<dim>28</dim>
				</port>
			</output>
		</layer>
		<layer id="187" name="Relu_75" type="ReLU" version="opset1">
			<input>
				<port id="0">
					<dim>1</dim>
					<dim>120</dim>
					<dim>28</dim>
					<dim>28</dim>
				</port>
			</input>
			<output>
				<port id="1" precision="FP32" names="416">
					<dim>1</dim>
					<dim>120</dim>
					<dim>28</dim>
					<dim>28</dim>
				</port>
			</output>
		</layer>
		<layer id="188" name="Conv_76/WithoutBiases" type="Convolution" version="opset1">
			<data auto_pad="explicit" strides="1,1" dilations="1,1" pads_begin="0,0" pads_end="0,0"/>
			<input>
				<port id="0">
					<dim>1</dim>
					<dim>120</dim>
					<dim>28</dim>
					<dim>28</dim>
				</port>
				<port id="1">
					<dim>40</dim>
					<dim>120</dim>
					<dim>1</dim>
					<dim>1</dim>
				</port>
			</input>
			<output>
				<port id="2" precision="FP32">
					<dim>1</dim>
					<dim>40</dim>
					<dim>28</dim>
					<dim>28</dim>
				</port>
			</output>
		</layer>
		<layer id="189" name="Conv_76/Dims6588" type="Const" version="opset1">
			<data offset="13436812" size="160" shape="1,40,1,1" element_type="f32"/>
			<output>
				<port id="0" precision="FP32">
					<dim>1</dim>
					<dim>40</dim>
					<dim>1</dim>
					<dim>1</dim>
				</port>
			</output>
		</layer>
		<layer id="190" name="Conv_76" type="Add" version="opset1">
			<data auto_broadcast="numpy"/>
			<input>
				<port id="0">
					<dim>1</dim>
					<dim>40</dim>
					<dim>28</dim>
					<dim>28</dim>
				</port>
				<port id="1">
					<dim>1</dim>
					<dim>40</dim>
					<dim>1</dim>
					<dim>1</dim>
				</port>
			</input>
			<output>
				<port id="2" precision="FP32" names="858">
					<dim>1</dim>
					<dim>40</dim>
					<dim>28</dim>
					<dim>28</dim>
				</port>
			</output>
		</layer>
		<layer id="191" name="Add_77" type="Add" version="opset1">
			<data auto_broadcast="numpy"/>
			<input>
				<port id="0">
					<dim>1</dim>
					<dim>40</dim>
					<dim>28</dim>
					<dim>28</dim>
				</port>
				<port id="1">
					<dim>1</dim>
					<dim>40</dim>
					<dim>28</dim>
					<dim>28</dim>
				</port>
			</input>
			<output>
				<port id="2" precision="FP32" names="419">
					<dim>1</dim>
					<dim>40</dim>
					<dim>28</dim>
					<dim>28</dim>
				</port>
			</output>
		</layer>
		<layer id="192" name="868" type="Const" version="opset1">
			<data offset="13436972" size="19200" shape="40,120,1,1" element_type="f32"/>
			<output>
				<port id="0" precision="FP32" names="868">
					<dim>40</dim>
					<dim>120</dim>
					<dim>1</dim>
					<dim>1</dim>
				</port>
			</output>
		</layer>
		<layer id="193" name="961" type="Const" version="opset1">
			<data offset="13456172" size="4" shape="1,1" element_type="f32"/>
			<output>
				<port id="0" precision="FP32" names="961">
					<dim>1</dim>
					<dim>1</dim>
				</port>
			</output>
		</layer>
		<layer id="194" name="features.6.conv.5.fc.2.weight" type="Const" version="opset1">
			<data offset="13456176" size="15360" shape="120,32" element_type="f32"/>
			<output>
				<port id="0" precision="FP32" names="features.6.conv.5.fc.2.weight">
					<dim>120</dim>
					<dim>32</dim>
				</port>
			</output>
		</layer>
		<layer id="195" name="features.6.conv.5.fc.0.weight" type="Const" version="opset1">
			<data offset="13471536" size="15360" shape="32,120" element_type="f32"/>
			<output>
				<port id="0" precision="FP32" names="features.6.conv.5.fc.0.weight">
					<dim>32</dim>
					<dim>120</dim>
				</port>
			</output>
		</layer>
		<layer id="196" name="862" type="Const" version="opset1">
			<data offset="13486896" size="19200" shape="120,40,1,1" element_type="f32"/>
			<output>
				<port id="0" precision="FP32" names="862">
					<dim>120</dim>
					<dim>40</dim>
					<dim>1</dim>
					<dim>1</dim>
				</port>
			</output>
		</layer>
		<layer id="197" name="Conv_78/WithoutBiases" type="Convolution" version="opset1">
			<data auto_pad="explicit" strides="1,1" dilations="1,1" pads_begin="0,0" pads_end="0,0"/>
			<input>
				<port id="0">
					<dim>1</dim>
					<dim>40</dim>
					<dim>28</dim>
					<dim>28</dim>
				</port>
				<port id="1">
					<dim>120</dim>
					<dim>40</dim>
					<dim>1</dim>
					<dim>1</dim>
				</port>
			</input>
			<output>
				<port id="2" precision="FP32">
					<dim>1</dim>
					<dim>120</dim>
					<dim>28</dim>
					<dim>28</dim>
				</port>
			</output>
		</layer>
		<layer id="198" name="Conv_78/Dims6576" type="Const" version="opset1">
			<data offset="13506096" size="480" shape="1,120,1,1" element_type="f32"/>
			<output>
				<port id="0" precision="FP32">
					<dim>1</dim>
					<dim>120</dim>
					<dim>1</dim>
					<dim>1</dim>
				</port>
			</output>
		</layer>
		<layer id="199" name="Conv_78" type="Add" version="opset1">
			<data auto_broadcast="numpy"/>
			<input>
				<port id="0">
					<dim>1</dim>
					<dim>120</dim>
					<dim>28</dim>
					<dim>28</dim>
				</port>
				<port id="1">
					<dim>1</dim>
					<dim>120</dim>
					<dim>1</dim>
					<dim>1</dim>
				</port>
			</input>
			<output>
				<port id="2" precision="FP32" names="861">
					<dim>1</dim>
					<dim>120</dim>
					<dim>28</dim>
					<dim>28</dim>
				</port>
			</output>
		</layer>
		<layer id="200" name="Relu_79" type="ReLU" version="opset1">
			<input>
				<port id="0">
					<dim>1</dim>
					<dim>120</dim>
					<dim>28</dim>
					<dim>28</dim>
				</port>
			</input>
			<output>
				<port id="1" precision="FP32" names="422">
					<dim>1</dim>
					<dim>120</dim>
					<dim>28</dim>
					<dim>28</dim>
				</port>
			</output>
		</layer>
		<layer id="201" name="865" type="Const" version="opset1">
			<data offset="13506576" size="12000" shape="120,1,1,5,5" element_type="f32"/>
			<output>
				<port id="0" precision="FP32" names="865">
					<dim>120</dim>
					<dim>1</dim>
					<dim>1</dim>
					<dim>5</dim>
					<dim>5</dim>
				</port>
			</output>
		</layer>
		<layer id="202" name="Conv_80/WithoutBiases" type="GroupConvolution" version="opset1">
			<data auto_pad="explicit" strides="1,1" dilations="1,1" pads_begin="2,2" pads_end="2,2"/>
			<input>
				<port id="0">
					<dim>1</dim>
					<dim>120</dim>
					<dim>28</dim>
					<dim>28</dim>
				</port>
				<port id="1">
					<dim>120</dim>
					<dim>1</dim>
					<dim>1</dim>
					<dim>5</dim>
					<dim>5</dim>
				</port>
			</input>
			<output>
				<port id="2" precision="FP32">
					<dim>1</dim>
					<dim>120</dim>
					<dim>28</dim>
					<dim>28</dim>
				</port>
			</output>
		</layer>
		<layer id="203" name="Conv_80/Dims6708" type="Const" version="opset1">
			<data offset="13518576" size="480" shape="1,120,1,1" element_type="f32"/>
			<output>
				<port id="0" precision="FP32">
					<dim>1</dim>
					<dim>120</dim>
					<dim>1</dim>
					<dim>1</dim>
				</port>
			</output>
		</layer>
		<layer id="204" name="Conv_80" type="Add" version="opset1">
			<data auto_broadcast="numpy"/>
			<input>
				<port id="0">
					<dim>1</dim>
					<dim>120</dim>
					<dim>28</dim>
					<dim>28</dim>
				</port>
				<port id="1">
					<dim>1</dim>
					<dim>120</dim>
					<dim>1</dim>
					<dim>1</dim>
				</port>
			</input>
			<output>
				<port id="2" precision="FP32" names="864">
					<dim>1</dim>
					<dim>120</dim>
					<dim>28</dim>
					<dim>28</dim>
				</port>
			</output>
		</layer>
		<layer id="205" name="620" type="Const" version="opset1">
			<data offset="13422668" size="8" shape="" element_type="i64"/>
			<output>
				<port id="0" precision="I64"/>
			</output>
		</layer>
		<layer id="206" name="622" type="Const" version="opset1">
			<data offset="13422676" size="8" shape="" element_type="i64"/>
			<output>
				<port id="0" precision="I64"/>
			</output>
		</layer>
		<layer id="207" name="GlobalAveragePool_87/input_rank/shape_of" type="ShapeOf" version="opset3">
			<data output_type="i64"/>
			<input>
				<port id="0">
					<dim>1</dim>
					<dim>120</dim>
					<dim>28</dim>
					<dim>28</dim>
				</port>
			</input>
			<output>
				<port id="1" precision="I64">
					<dim>4</dim>
				</port>
			</output>
		</layer>
		<layer id="208" name="GlobalAveragePool_87/input_rank/rank_of" type="ShapeOf" version="opset3">
			<data output_type="i64"/>
			<input>
				<port id="0">
					<dim>4</dim>
				</port>
			</input>
			<output>
				<port id="1" precision="I64">
					<dim>1</dim>
				</port>
			</output>
		</layer>
		<layer id="209" name="GlobalAveragePool_87/input_rank/0d_rank_of/value" type="Const" version="opset1">
			<data offset="13422684" size="8" shape="1" element_type="i64"/>
			<output>
				<port id="0" precision="I64">
					<dim>1</dim>
				</port>
			</output>
		</layer>
		<layer id="210" name="GlobalAveragePool_87/input_rank" type="Squeeze" version="opset1">
			<input>
				<port id="0">
					<dim>1</dim>
				</port>
				<port id="1">
					<dim>1</dim>
				</port>
			</input>
			<output>
				<port id="2" precision="I64"/>
			</output>
		</layer>
		<layer id="211" name="GlobalAveragePool_87/global_pooling_reduce_axis" type="Range" version="opset4">
			<data output_type="i64"/>
			<input>
				<port id="0"/>
				<port id="1"/>
				<port id="2"/>
			</input>
			<output>
				<port id="3" precision="I64">
					<dim>2</dim>
				</port>
			</output>
		</layer>
		<layer id="212" name="GlobalAveragePool_87/reduce" type="ReduceMean" version="opset1">
			<data keep_dims="true"/>
			<input>
				<port id="0">
					<dim>1</dim>
					<dim>120</dim>
					<dim>28</dim>
					<dim>28</dim>
				</port>
				<port id="1">
					<dim>2</dim>
				</port>
			</input>
			<output>
				<port id="2" precision="FP32" names="431">
					<dim>1</dim>
					<dim>120</dim>
					<dim>1</dim>
					<dim>1</dim>
				</port>
			</output>
		</layer>
		<layer id="213" name="Unsqueeze_88/Dims" type="Const" version="opset1">
			<data offset="13422684" size="8" shape="1" element_type="i64"/>
			<output>
				<port id="0" precision="I64">
					<dim>1</dim>
				</port>
			</output>
		</layer>
		<layer id="214" name="Shape_81" type="ShapeOf" version="opset3">
			<data output_type="i64"/>
			<input>
				<port id="0">
					<dim>1</dim>
					<dim>120</dim>
					<dim>28</dim>
					<dim>28</dim>
				</port>
			</input>
			<output>
				<port id="1" precision="I64" names="425">
					<dim>4</dim>
				</port>
			</output>
		</layer>
		<layer id="215" name="Constant_82" type="Const" version="opset1">
			<data offset="13422692" size="4" shape="" element_type="i32"/>
			<output>
				<port id="0" precision="I32" names="426"/>
			</output>
		</layer>
		<layer id="216" name="Gather_83/axis" type="Const" version="opset1">
			<data offset="13422684" size="8" shape="" element_type="i64"/>
			<output>
				<port id="0" precision="I64"/>
			</output>
		</layer>
		<layer id="217" name="Gather_83739" type="Gather" version="opset7">
			<data batch_dims="0"/>
			<input>
				<port id="0">
					<dim>4</dim>
				</port>
				<port id="1"/>
				<port id="2"/>
			</input>
			<output>
				<port id="3" precision="I64" names="427"/>
			</output>
		</layer>
		<layer id="218" name="Unsqueeze_88/Unsqueeze" type="Unsqueeze" version="opset1">
			<input>
				<port id="0"/>
				<port id="1">
					<dim>1</dim>
				</port>
			</input>
			<output>
				<port id="2" precision="I64" names="432">
					<dim>1</dim>
				</port>
			</output>
		</layer>
		<layer id="219" name="Unsqueeze_89/Dims" type="Const" version="opset1">
			<data offset="13422684" size="8" shape="1" element_type="i64"/>
			<output>
				<port id="0" precision="I64">
					<dim>1</dim>
				</port>
			</output>
		</layer>
		<layer id="220" name="Shape_84" type="ShapeOf" version="opset3">
			<data output_type="i64"/>
			<input>
				<port id="0">
					<dim>1</dim>
					<dim>120</dim>
					<dim>28</dim>
					<dim>28</dim>
				</port>
			</input>
			<output>
				<port id="1" precision="I64" names="428">
					<dim>4</dim>
				</port>
			</output>
		</layer>
		<layer id="221" name="Constant_85" type="Const" version="opset1">
			<data offset="13422696" size="4" shape="" element_type="i32"/>
			<output>
				<port id="0" precision="I32" names="429"/>
			</output>
		</layer>
		<layer id="222" name="Gather_86/axis" type="Const" version="opset1">
			<data offset="13422684" size="8" shape="" element_type="i64"/>
			<output>
				<port id="0" precision="I64"/>
			</output>
		</layer>
		<layer id="223" name="Gather_86719" type="Gather" version="opset7">
			<data batch_dims="0"/>
			<input>
				<port id="0">
					<dim>4</dim>
				</port>
				<port id="1"/>
				<port id="2"/>
			</input>
			<output>
				<port id="3" precision="I64" names="430"/>
			</output>
		</layer>
		<layer id="224" name="Unsqueeze_89/Unsqueeze" type="Unsqueeze" version="opset1">
			<input>
				<port id="0"/>
				<port id="1">
					<dim>1</dim>
				</port>
			</input>
			<output>
				<port id="2" precision="I64" names="433">
					<dim>1</dim>
				</port>
			</output>
		</layer>
		<layer id="225" name="Concat_90" type="Concat" version="opset1">
			<data axis="0"/>
			<input>
				<port id="0">
					<dim>1</dim>
				</port>
				<port id="1">
					<dim>1</dim>
				</port>
			</input>
			<output>
				<port id="2" precision="I64" names="434">
					<dim>2</dim>
				</port>
			</output>
		</layer>
		<layer id="226" name="Reshape_91" type="Reshape" version="opset1">
			<data special_zero="true"/>
			<input>
				<port id="0">
					<dim>1</dim>
					<dim>120</dim>
					<dim>1</dim>
					<dim>1</dim>
				</port>
				<port id="1">
					<dim>2</dim>
				</port>
			</input>
			<output>
				<port id="2" precision="FP32" names="435">
					<dim>1</dim>
					<dim>120</dim>
				</port>
			</output>
		</layer>
		<layer id="227" name="Gemm_92/WithoutBiases" type="MatMul" version="opset1">
			<data transpose_a="false" transpose_b="true"/>
			<input>
				<port id="0">
					<dim>1</dim>
					<dim>120</dim>
				</port>
				<port id="1">
					<dim>32</dim>
					<dim>120</dim>
				</port>
			</input>
			<output>
				<port id="2" precision="FP32">
					<dim>1</dim>
					<dim>32</dim>
				</port>
			</output>
		</layer>
		<layer id="228" name="features.6.conv.5.fc.0.bias" type="Const" version="opset1">
			<data offset="13519056" size="128" shape="1,32" element_type="f32"/>
			<output>
				<port id="0" precision="FP32" names="features.6.conv.5.fc.0.bias">
					<dim>1</dim>
					<dim>32</dim>
				</port>
			</output>
		</layer>
		<layer id="229" name="Gemm_92" type="Add" version="opset1">
			<data auto_broadcast="numpy"/>
			<input>
				<port id="0">
					<dim>1</dim>
					<dim>32</dim>
				</port>
				<port id="1">
					<dim>1</dim>
					<dim>32</dim>
				</port>
			</input>
			<output>
				<port id="2" precision="FP32" names="436">
					<dim>1</dim>
					<dim>32</dim>
				</port>
			</output>
		</layer>
		<layer id="230" name="Relu_93" type="ReLU" version="opset1">
			<input>
				<port id="0">
					<dim>1</dim>
					<dim>32</dim>
				</port>
			</input>
			<output>
				<port id="1" precision="FP32" names="437">
					<dim>1</dim>
					<dim>32</dim>
				</port>
			</output>
		</layer>
		<layer id="231" name="Gemm_94/WithoutBiases" type="MatMul" version="opset1">
			<data transpose_a="false" transpose_b="true"/>
			<input>
				<port id="0">
					<dim>1</dim>
					<dim>32</dim>
				</port>
				<port id="1">
					<dim>120</dim>
					<dim>32</dim>
				</port>
			</input>
			<output>
				<port id="2" precision="FP32">
					<dim>1</dim>
					<dim>120</dim>
				</port>
			</output>
		</layer>
		<layer id="232" name="data_add_1089210894" type="Const" version="opset1">
			<data offset="13519184" size="480" shape="1,120" element_type="f32"/>
			<output>
				<port id="0" precision="FP32">
					<dim>1</dim>
					<dim>120</dim>
				</port>
			</output>
		</layer>
		<layer id="233" name="Gemm_94/Fused_Add_" type="Add" version="opset1">
			<data auto_broadcast="numpy"/>
			<input>
				<port id="0">
					<dim>1</dim>
					<dim>120</dim>
				</port>
				<port id="1">
					<dim>1</dim>
					<dim>120</dim>
				</port>
			</input>
			<output>
				<port id="2" precision="FP32" names="440">
					<dim>1</dim>
					<dim>120</dim>
				</port>
			</output>
		</layer>
		<layer id="234" name="Clip_97" type="Clamp" version="opset1">
			<data max="6.0" min="0.0"/>
			<input>
				<port id="0">
					<dim>1</dim>
					<dim>120</dim>
				</port>
			</input>
			<output>
				<port id="1" precision="FP32" names="441">
					<dim>1</dim>
					<dim>120</dim>
				</port>
			</output>
		</layer>
		<layer id="235" name="Div_98" type="Multiply" version="opset1">
			<data auto_broadcast="numpy"/>
			<input>
				<port id="0">
					<dim>1</dim>
					<dim>120</dim>
				</port>
				<port id="1">
					<dim>1</dim>
					<dim>1</dim>
				</port>
			</input>
			<output>
				<port id="2" precision="FP32" names="444">
					<dim>1</dim>
					<dim>120</dim>
				</port>
			</output>
		</layer>
		<layer id="236" name="962" type="Const" version="opset1">
			<data offset="13422676" size="8" shape="1" element_type="i64"/>
			<output>
				<port id="0" precision="I64" names="962">
					<dim>1</dim>
				</port>
			</output>
		</layer>
		<layer id="237" name="963" type="Const" version="opset1">
			<data offset="13422676" size="8" shape="1" element_type="i64"/>
			<output>
				<port id="0" precision="I64" names="963">
					<dim>1</dim>
				</port>
			</output>
		</layer>
		<layer id="238" name="Unsqueeze_99/Dims" type="Const" version="opset1">
			<data offset="13422684" size="8" shape="1" element_type="i64"/>
			<output>
				<port id="0" precision="I64">
					<dim>1</dim>
				</port>
			</output>
		</layer>
		<layer id="239" name="Unsqueeze_99/Unsqueeze" type="Unsqueeze" version="opset1">
			<input>
				<port id="0"/>
				<port id="1">
					<dim>1</dim>
				</port>
			</input>
			<output>
				<port id="2" precision="I64" names="447">
					<dim>1</dim>
				</port>
			</output>
		</layer>
		<layer id="240" name="Unsqueeze_100/Dims" type="Const" version="opset1">
			<data offset="13422684" size="8" shape="1" element_type="i64"/>
			<output>
				<port id="0" precision="I64">
					<dim>1</dim>
				</port>
			</output>
		</layer>
		<layer id="241" name="Unsqueeze_100/Unsqueeze" type="Unsqueeze" version="opset1">
			<input>
				<port id="0"/>
				<port id="1">
					<dim>1</dim>
				</port>
			</input>
			<output>
				<port id="2" precision="I64" names="448">
					<dim>1</dim>
				</port>
			</output>
		</layer>
		<layer id="242" name="Concat_101" type="Concat" version="opset1">
			<data axis="0"/>
			<input>
				<port id="0">
					<dim>1</dim>
				</port>
				<port id="1">
					<dim>1</dim>
				</port>
				<port id="2">
					<dim>1</dim>
				</port>
				<port id="3">
					<dim>1</dim>
				</port>
			</input>
			<output>
				<port id="4" precision="I64" names="451">
					<dim>4</dim>
				</port>
			</output>
		</layer>
		<layer id="243" name="Reshape_102" type="Reshape" version="opset1">
			<data special_zero="true"/>
			<input>
				<port id="0">
					<dim>1</dim>
					<dim>120</dim>
				</port>
				<port id="1">
					<dim>4</dim>
				</port>
			</input>
			<output>
				<port id="2" precision="FP32" names="452">
					<dim>1</dim>
					<dim>120</dim>
					<dim>1</dim>
					<dim>1</dim>
				</port>
			</output>
		</layer>
		<layer id="244" name="Mul_103" type="Multiply" version="opset1">
			<data auto_broadcast="numpy"/>
			<input>
				<port id="0">
					<dim>1</dim>
					<dim>120</dim>
					<dim>28</dim>
					<dim>28</dim>
				</port>
				<port id="1">
					<dim>1</dim>
					<dim>120</dim>
					<dim>1</dim>
					<dim>1</dim>
				</port>
			</input>
			<output>
				<port id="2" precision="FP32" names="453">
					<dim>1</dim>
					<dim>120</dim>
					<dim>28</dim>
					<dim>28</dim>
				</port>
			</output>
		</layer>
		<layer id="245" name="Relu_104" type="ReLU" version="opset1">
			<input>
				<port id="0">
					<dim>1</dim>
					<dim>120</dim>
					<dim>28</dim>
					<dim>28</dim>
				</port>
			</input>
			<output>
				<port id="1" precision="FP32" names="454">
					<dim>1</dim>
					<dim>120</dim>
					<dim>28</dim>
					<dim>28</dim>
				</port>
			</output>
		</layer>
		<layer id="246" name="Conv_105/WithoutBiases" type="Convolution" version="opset1">
			<data auto_pad="explicit" strides="1,1" dilations="1,1" pads_begin="0,0" pads_end="0,0"/>
			<input>
				<port id="0">
					<dim>1</dim>
					<dim>120</dim>
					<dim>28</dim>
					<dim>28</dim>
				</port>
				<port id="1">
					<dim>40</dim>
					<dim>120</dim>
					<dim>1</dim>
					<dim>1</dim>
				</port>
			</input>
			<output>
				<port id="2" precision="FP32">
					<dim>1</dim>
					<dim>40</dim>
					<dim>28</dim>
					<dim>28</dim>
				</port>
			</output>
		</layer>
		<layer id="247" name="Conv_105/Dims6594" type="Const" version="opset1">
			<data offset="13519664" size="160" shape="1,40,1,1" element_type="f32"/>
			<output>
				<port id="0" precision="FP32">
					<dim>1</dim>
					<dim>40</dim>
					<dim>1</dim>
					<dim>1</dim>
				</port>
			</output>
		</layer>
		<layer id="248" name="Conv_105" type="Add" version="opset1">
			<data auto_broadcast="numpy"/>
			<input>
				<port id="0">
					<dim>1</dim>
					<dim>40</dim>
					<dim>28</dim>
					<dim>28</dim>
				</port>
				<port id="1">
					<dim>1</dim>
					<dim>40</dim>
					<dim>1</dim>
					<dim>1</dim>
				</port>
			</input>
			<output>
				<port id="2" precision="FP32" names="867">
					<dim>1</dim>
					<dim>40</dim>
					<dim>28</dim>
					<dim>28</dim>
				</port>
			</output>
		</layer>
		<layer id="249" name="Add_106" type="Add" version="opset1">
			<data auto_broadcast="numpy"/>
			<input>
				<port id="0">
					<dim>1</dim>
					<dim>40</dim>
					<dim>28</dim>
					<dim>28</dim>
				</port>
				<port id="1">
					<dim>1</dim>
					<dim>40</dim>
					<dim>28</dim>
					<dim>28</dim>
				</port>
			</input>
			<output>
				<port id="2" precision="FP32" names="457">
					<dim>1</dim>
					<dim>40</dim>
					<dim>28</dim>
					<dim>28</dim>
				</port>
			</output>
		</layer>
		<layer id="250" name="Conv_107/WithoutBiases" type="Convolution" version="opset1">
			<data auto_pad="explicit" strides="1,1" dilations="1,1" pads_begin="0,0" pads_end="0,0"/>
			<input>
				<port id="0">
					<dim>1</dim>
					<dim>40</dim>
					<dim>28</dim>
					<dim>28</dim>
				</port>
				<port id="1">
					<dim>240</dim>
					<dim>40</dim>
					<dim>1</dim>
					<dim>1</dim>
				</port>
			</input>
			<output>
				<port id="2" precision="FP32">
					<dim>1</dim>
					<dim>240</dim>
					<dim>28</dim>
					<dim>28</dim>
				</port>
			</output>
		</layer>
		<layer id="251" name="Conv_107/Dims6612" type="Const" version="opset1">
			<data offset="13519824" size="960" shape="1,240,1,1" element_type="f32"/>
			<output>
				<port id="0" precision="FP32">
					<dim>1</dim>
					<dim>240</dim>
					<dim>1</dim>
					<dim>1</dim>
				</port>
			</output>
		</layer>
		<layer id="252" name="Conv_107" type="Add" version="opset1">
			<data auto_broadcast="numpy"/>
			<input>
				<port id="0">
					<dim>1</dim>
					<dim>240</dim>
					<dim>28</dim>
					<dim>28</dim>
				</port>
				<port id="1">
					<dim>1</dim>
					<dim>240</dim>
					<dim>1</dim>
					<dim>1</dim>
				</port>
			</input>
			<output>
				<port id="2" precision="FP32" names="870">
					<dim>1</dim>
					<dim>240</dim>
					<dim>28</dim>
					<dim>28</dim>
				</port>
			</output>
		</layer>
		<layer id="253" name="964" type="Const" version="opset1">
			<data offset="13520784" size="4" shape="1,1,1,1" element_type="f32"/>
			<output>
				<port id="0" precision="FP32" names="964">
					<dim>1</dim>
					<dim>1</dim>
					<dim>1</dim>
					<dim>1</dim>
				</port>
			</output>
		</layer>
		<layer id="254" name="Constant_108" type="Const" version="opset1">
			<data offset="13393160" size="4" shape="1,1,1,1" element_type="f32"/>
			<output>
				<port id="0" precision="FP32" names="460">
					<dim>1</dim>
					<dim>1</dim>
					<dim>1</dim>
					<dim>1</dim>
				</port>
			</output>
		</layer>
		<layer id="255" name="Add_109" type="Add" version="opset1">
			<data auto_broadcast="numpy"/>
			<input>
				<port id="0">
					<dim>1</dim>
					<dim>240</dim>
					<dim>28</dim>
					<dim>28</dim>
				</port>
				<port id="1">
					<dim>1</dim>
					<dim>1</dim>
					<dim>1</dim>
					<dim>1</dim>
				</port>
			</input>
			<output>
				<port id="2" precision="FP32" names="461">
					<dim>1</dim>
					<dim>240</dim>
					<dim>28</dim>
					<dim>28</dim>
				</port>
			</output>
		</layer>
		<layer id="256" name="Clip_110" type="Clamp" version="opset1">
			<data max="6.0" min="0.0"/>
			<input>
				<port id="0">
					<dim>1</dim>
					<dim>240</dim>
					<dim>28</dim>
					<dim>28</dim>
				</port>
			</input>
			<output>
				<port id="1" precision="FP32" names="462">
					<dim>1</dim>
					<dim>240</dim>
					<dim>28</dim>
					<dim>28</dim>
				</port>
			</output>
		</layer>
		<layer id="257" name="Div_111" type="Multiply" version="opset1">
			<data auto_broadcast="numpy"/>
			<input>
				<port id="0">
					<dim>1</dim>
					<dim>240</dim>
					<dim>28</dim>
					<dim>28</dim>
				</port>
				<port id="1">
					<dim>1</dim>
					<dim>1</dim>
					<dim>1</dim>
					<dim>1</dim>
				</port>
			</input>
			<output>
				<port id="2" precision="FP32" names="465">
					<dim>1</dim>
					<dim>240</dim>
					<dim>28</dim>
					<dim>28</dim>
				</port>
			</output>
		</layer>
		<layer id="258" name="Mul_112" type="Multiply" version="opset1">
			<data auto_broadcast="numpy"/>
			<input>
				<port id="0">
					<dim>1</dim>
					<dim>240</dim>
					<dim>28</dim>
					<dim>28</dim>
				</port>
				<port id="1">
					<dim>1</dim>
					<dim>240</dim>
					<dim>28</dim>
					<dim>28</dim>
				</port>
			</input>
			<output>
				<port id="2" precision="FP32" names="466">
					<dim>1</dim>
					<dim>240</dim>
					<dim>28</dim>
					<dim>28</dim>
				</port>
			</output>
		</layer>
		<layer id="259" name="874" type="Const" version="opset1">
			<data offset="13520788" size="8640" shape="240,1,1,3,3" element_type="f32"/>
			<output>
				<port id="0" precision="FP32" names="874">
					<dim>240</dim>
					<dim>1</dim>
					<dim>1</dim>
					<dim>3</dim>
					<dim>3</dim>
				</port>
			</output>
		</layer>
		<layer id="260" name="Conv_113/WithoutBiases" type="GroupConvolution" version="opset1">
			<data auto_pad="explicit" strides="2,2" dilations="1,1" pads_begin="1,1" pads_end="1,1"/>
			<input>
				<port id="0">
					<dim>1</dim>
					<dim>240</dim>
					<dim>28</dim>
					<dim>28</dim>
				</port>
				<port id="1">
					<dim>240</dim>
					<dim>1</dim>
					<dim>1</dim>
					<dim>3</dim>
					<dim>3</dim>
				</port>
			</input>
			<output>
				<port id="2" precision="FP32">
					<dim>1</dim>
					<dim>240</dim>
					<dim>14</dim>
					<dim>14</dim>
				</port>
			</output>
		</layer>
		<layer id="261" name="Conv_113/Dims6570" type="Const" version="opset1">
			<data offset="13529428" size="960" shape="1,240,1,1" element_type="f32"/>
			<output>
				<port id="0" precision="FP32">
					<dim>1</dim>
					<dim>240</dim>
					<dim>1</dim>
					<dim>1</dim>
				</port>
			</output>
		</layer>
		<layer id="262" name="Conv_113" type="Add" version="opset1">
			<data auto_broadcast="numpy"/>
			<input>
				<port id="0">
					<dim>1</dim>
					<dim>240</dim>
					<dim>14</dim>
					<dim>14</dim>
				</port>
				<port id="1">
					<dim>1</dim>
					<dim>240</dim>
					<dim>1</dim>
					<dim>1</dim>
				</port>
			</input>
			<output>
				<port id="2" precision="FP32" names="873">
					<dim>1</dim>
					<dim>240</dim>
					<dim>14</dim>
					<dim>14</dim>
				</port>
			</output>
		</layer>
		<layer id="263" name="965" type="Const" version="opset1">
			<data offset="13520784" size="4" shape="1,1,1,1" element_type="f32"/>
			<output>
				<port id="0" precision="FP32" names="965">
					<dim>1</dim>
					<dim>1</dim>
					<dim>1</dim>
					<dim>1</dim>
				</port>
			</output>
		</layer>
		<layer id="264" name="Constant_114" type="Const" version="opset1">
			<data offset="13393160" size="4" shape="1,1,1,1" element_type="f32"/>
			<output>
				<port id="0" precision="FP32" names="469">
					<dim>1</dim>
					<dim>1</dim>
					<dim>1</dim>
					<dim>1</dim>
				</port>
			</output>
		</layer>
		<layer id="265" name="Add_115" type="Add" version="opset1">
			<data auto_broadcast="numpy"/>
			<input>
				<port id="0">
					<dim>1</dim>
					<dim>240</dim>
					<dim>14</dim>
					<dim>14</dim>
				</port>
				<port id="1">
					<dim>1</dim>
					<dim>1</dim>
					<dim>1</dim>
					<dim>1</dim>
				</port>
			</input>
			<output>
				<port id="2" precision="FP32" names="470">
					<dim>1</dim>
					<dim>240</dim>
					<dim>14</dim>
					<dim>14</dim>
				</port>
			</output>
		</layer>
		<layer id="266" name="Clip_116" type="Clamp" version="opset1">
			<data max="6.0" min="0.0"/>
			<input>
				<port id="0">
					<dim>1</dim>
					<dim>240</dim>
					<dim>14</dim>
					<dim>14</dim>
				</port>
			</input>
			<output>
				<port id="1" precision="FP32" names="471">
					<dim>1</dim>
					<dim>240</dim>
					<dim>14</dim>
					<dim>14</dim>
				</port>
			</output>
		</layer>
		<layer id="267" name="Div_117" type="Multiply" version="opset1">
			<data auto_broadcast="numpy"/>
			<input>
				<port id="0">
					<dim>1</dim>
					<dim>240</dim>
					<dim>14</dim>
					<dim>14</dim>
				</port>
				<port id="1">
					<dim>1</dim>
					<dim>1</dim>
					<dim>1</dim>
					<dim>1</dim>
				</port>
			</input>
			<output>
				<port id="2" precision="FP32" names="474">
					<dim>1</dim>
					<dim>240</dim>
					<dim>14</dim>
					<dim>14</dim>
				</port>
			</output>
		</layer>
		<layer id="268" name="Mul_118" type="Multiply" version="opset1">
			<data auto_broadcast="numpy"/>
			<input>
				<port id="0">
					<dim>1</dim>
					<dim>240</dim>
					<dim>14</dim>
					<dim>14</dim>
				</port>
				<port id="1">
					<dim>1</dim>
					<dim>240</dim>
					<dim>14</dim>
					<dim>14</dim>
				</port>
			</input>
			<output>
				<port id="2" precision="FP32" names="475">
					<dim>1</dim>
					<dim>240</dim>
					<dim>14</dim>
					<dim>14</dim>
				</port>
			</output>
		</layer>
		<layer id="269" name="Conv_119/WithoutBiases" type="Convolution" version="opset1">
			<data auto_pad="explicit" strides="1,1" dilations="1,1" pads_begin="0,0" pads_end="0,0"/>
			<input>
				<port id="0">
					<dim>1</dim>
					<dim>240</dim>
					<dim>14</dim>
					<dim>14</dim>
				</port>
				<port id="1">
					<dim>80</dim>
					<dim>240</dim>
					<dim>1</dim>
					<dim>1</dim>
				</port>
			</input>
			<output>
				<port id="2" precision="FP32">
					<dim>1</dim>
					<dim>80</dim>
					<dim>14</dim>
					<dim>14</dim>
				</port>
			</output>
		</layer>
		<layer id="270" name="Conv_119/Dims6756" type="Const" version="opset1">
			<data offset="13530388" size="320" shape="1,80,1,1" element_type="f32"/>
			<output>
				<port id="0" precision="FP32">
					<dim>1</dim>
					<dim>80</dim>
					<dim>1</dim>
					<dim>1</dim>
				</port>
			</output>
		</layer>
		<layer id="271" name="Conv_119" type="Add" version="opset1">
			<data auto_broadcast="numpy"/>
			<input>
				<port id="0">
					<dim>1</dim>
					<dim>80</dim>
					<dim>14</dim>
					<dim>14</dim>
				</port>
				<port id="1">
					<dim>1</dim>
					<dim>80</dim>
					<dim>1</dim>
					<dim>1</dim>
				</port>
			</input>
			<output>
				<port id="2" precision="FP32" names="876">
					<dim>1</dim>
					<dim>80</dim>
					<dim>14</dim>
					<dim>14</dim>
				</port>
			</output>
		</layer>
		<layer id="272" name="Conv_120/WithoutBiases" type="Convolution" version="opset1">
			<data auto_pad="explicit" strides="1,1" dilations="1,1" pads_begin="0,0" pads_end="0,0"/>
			<input>
				<port id="0">
					<dim>1</dim>
					<dim>80</dim>
					<dim>14</dim>
					<dim>14</dim>
				</port>
				<port id="1">
					<dim>200</dim>
					<dim>80</dim>
					<dim>1</dim>
					<dim>1</dim>
				</port>
			</input>
			<output>
				<port id="2" precision="FP32">
					<dim>1</dim>
					<dim>200</dim>
					<dim>14</dim>
					<dim>14</dim>
				</port>
			</output>
		</layer>
		<layer id="273" name="Conv_120/Dims6660" type="Const" version="opset1">
			<data offset="13530708" size="800" shape="1,200,1,1" element_type="f32"/>
			<output>
				<port id="0" precision="FP32">
					<dim>1</dim>
					<dim>200</dim>
					<dim>1</dim>
					<dim>1</dim>
				</port>
			</output>
		</layer>
		<layer id="274" name="Conv_120" type="Add" version="opset1">
			<data auto_broadcast="numpy"/>
			<input>
				<port id="0">
					<dim>1</dim>
					<dim>200</dim>
					<dim>14</dim>
					<dim>14</dim>
				</port>
				<port id="1">
					<dim>1</dim>
					<dim>200</dim>
					<dim>1</dim>
					<dim>1</dim>
				</port>
			</input>
			<output>
				<port id="2" precision="FP32" names="879">
					<dim>1</dim>
					<dim>200</dim>
					<dim>14</dim>
					<dim>14</dim>
				</port>
			</output>
		</layer>
		<layer id="275" name="966" type="Const" version="opset1">
			<data offset="13520784" size="4" shape="1,1,1,1" element_type="f32"/>
			<output>
				<port id="0" precision="FP32" names="966">
					<dim>1</dim>
					<dim>1</dim>
					<dim>1</dim>
					<dim>1</dim>
				</port>
			</output>
		</layer>
		<layer id="276" name="Constant_121" type="Const" version="opset1">
			<data offset="13393160" size="4" shape="1,1,1,1" element_type="f32"/>
			<output>
				<port id="0" precision="FP32" names="480">
					<dim>1</dim>
					<dim>1</dim>
					<dim>1</dim>
					<dim>1</dim>
				</port>
			</output>
		</layer>
		<layer id="277" name="Add_122" type="Add" version="opset1">
			<data auto_broadcast="numpy"/>
			<input>
				<port id="0">
					<dim>1</dim>
					<dim>200</dim>
					<dim>14</dim>
					<dim>14</dim>
				</port>
				<port id="1">
					<dim>1</dim>
					<dim>1</dim>
					<dim>1</dim>
					<dim>1</dim>
				</port>
			</input>
			<output>
				<port id="2" precision="FP32" names="481">
					<dim>1</dim>
					<dim>200</dim>
					<dim>14</dim>
					<dim>14</dim>
				</port>
			</output>
		</layer>
		<layer id="278" name="Clip_123" type="Clamp" version="opset1">
			<data max="6.0" min="0.0"/>
			<input>
				<port id="0">
					<dim>1</dim>
					<dim>200</dim>
					<dim>14</dim>
					<dim>14</dim>
				</port>
			</input>
			<output>
				<port id="1" precision="FP32" names="482">
					<dim>1</dim>
					<dim>200</dim>
					<dim>14</dim>
					<dim>14</dim>
				</port>
			</output>
		</layer>
		<layer id="279" name="Div_124" type="Multiply" version="opset1">
			<data auto_broadcast="numpy"/>
			<input>
				<port id="0">
					<dim>1</dim>
					<dim>200</dim>
					<dim>14</dim>
					<dim>14</dim>
				</port>
				<port id="1">
					<dim>1</dim>
					<dim>1</dim>
					<dim>1</dim>
					<dim>1</dim>
				</port>
			</input>
			<output>
				<port id="2" precision="FP32" names="485">
					<dim>1</dim>
					<dim>200</dim>
					<dim>14</dim>
					<dim>14</dim>
				</port>
			</output>
		</layer>
		<layer id="280" name="Mul_125" type="Multiply" version="opset1">
			<data auto_broadcast="numpy"/>
			<input>
				<port id="0">
					<dim>1</dim>
					<dim>200</dim>
					<dim>14</dim>
					<dim>14</dim>
				</port>
				<port id="1">
					<dim>1</dim>
					<dim>200</dim>
					<dim>14</dim>
					<dim>14</dim>
				</port>
			</input>
			<output>
				<port id="2" precision="FP32" names="486">
					<dim>1</dim>
					<dim>200</dim>
					<dim>14</dim>
					<dim>14</dim>
				</port>
			</output>
		</layer>
		<layer id="281" name="883" type="Const" version="opset1">
			<data offset="13531508" size="7200" shape="200,1,1,3,3" element_type="f32"/>
			<output>
				<port id="0" precision="FP32" names="883">
					<dim>200</dim>
					<dim>1</dim>
					<dim>1</dim>
					<dim>3</dim>
					<dim>3</dim>
				</port>
			</output>
		</layer>
		<layer id="282" name="Conv_126/WithoutBiases" type="GroupConvolution" version="opset1">
			<data auto_pad="explicit" strides="1,1" dilations="1,1" pads_begin="1,1" pads_end="1,1"/>
			<input>
				<port id="0">
					<dim>1</dim>
					<dim>200</dim>
					<dim>14</dim>
					<dim>14</dim>
				</port>
				<port id="1">
					<dim>200</dim>
					<dim>1</dim>
					<dim>1</dim>
					<dim>3</dim>
					<dim>3</dim>
				</port>
			</input>
			<output>
				<port id="2" precision="FP32">
					<dim>1</dim>
					<dim>200</dim>
					<dim>14</dim>
					<dim>14</dim>
				</port>
			</output>
		</layer>
		<layer id="283" name="Conv_126/Dims6780" type="Const" version="opset1">
			<data offset="13538708" size="800" shape="1,200,1,1" element_type="f32"/>
			<output>
				<port id="0" precision="FP32">
					<dim>1</dim>
					<dim>200</dim>
					<dim>1</dim>
					<dim>1</dim>
				</port>
			</output>
		</layer>
		<layer id="284" name="Conv_126" type="Add" version="opset1">
			<data auto_broadcast="numpy"/>
			<input>
				<port id="0">
					<dim>1</dim>
					<dim>200</dim>
					<dim>14</dim>
					<dim>14</dim>
				</port>
				<port id="1">
					<dim>1</dim>
					<dim>200</dim>
					<dim>1</dim>
					<dim>1</dim>
				</port>
			</input>
			<output>
				<port id="2" precision="FP32" names="882">
					<dim>1</dim>
					<dim>200</dim>
					<dim>14</dim>
					<dim>14</dim>
				</port>
			</output>
		</layer>
		<layer id="285" name="967" type="Const" version="opset1">
			<data offset="13520784" size="4" shape="1,1,1,1" element_type="f32"/>
			<output>
				<port id="0" precision="FP32" names="967">
					<dim>1</dim>
					<dim>1</dim>
					<dim>1</dim>
					<dim>1</dim>
				</port>
			</output>
		</layer>
		<layer id="286" name="Constant_127" type="Const" version="opset1">
			<data offset="13393160" size="4" shape="1,1,1,1" element_type="f32"/>
			<output>
				<port id="0" precision="FP32" names="489">
					<dim>1</dim>
					<dim>1</dim>
					<dim>1</dim>
					<dim>1</dim>
				</port>
			</output>
		</layer>
		<layer id="287" name="Add_128" type="Add" version="opset1">
			<data auto_broadcast="numpy"/>
			<input>
				<port id="0">
					<dim>1</dim>
					<dim>200</dim>
					<dim>14</dim>
					<dim>14</dim>
				</port>
				<port id="1">
					<dim>1</dim>
					<dim>1</dim>
					<dim>1</dim>
					<dim>1</dim>
				</port>
			</input>
			<output>
				<port id="2" precision="FP32" names="490">
					<dim>1</dim>
					<dim>200</dim>
					<dim>14</dim>
					<dim>14</dim>
				</port>
			</output>
		</layer>
		<layer id="288" name="Clip_129" type="Clamp" version="opset1">
			<data max="6.0" min="0.0"/>
			<input>
				<port id="0">
					<dim>1</dim>
					<dim>200</dim>
					<dim>14</dim>
					<dim>14</dim>
				</port>
			</input>
			<output>
				<port id="1" precision="FP32" names="491">
					<dim>1</dim>
					<dim>200</dim>
					<dim>14</dim>
					<dim>14</dim>
				</port>
			</output>
		</layer>
		<layer id="289" name="Div_130" type="Multiply" version="opset1">
			<data auto_broadcast="numpy"/>
			<input>
				<port id="0">
					<dim>1</dim>
					<dim>200</dim>
					<dim>14</dim>
					<dim>14</dim>
				</port>
				<port id="1">
					<dim>1</dim>
					<dim>1</dim>
					<dim>1</dim>
					<dim>1</dim>
				</port>
			</input>
			<output>
				<port id="2" precision="FP32" names="494">
					<dim>1</dim>
					<dim>200</dim>
					<dim>14</dim>
					<dim>14</dim>
				</port>
			</output>
		</layer>
		<layer id="290" name="Mul_131" type="Multiply" version="opset1">
			<data auto_broadcast="numpy"/>
			<input>
				<port id="0">
					<dim>1</dim>
					<dim>200</dim>
					<dim>14</dim>
					<dim>14</dim>
				</port>
				<port id="1">
					<dim>1</dim>
					<dim>200</dim>
					<dim>14</dim>
					<dim>14</dim>
				</port>
			</input>
			<output>
				<port id="2" precision="FP32" names="495">
					<dim>1</dim>
					<dim>200</dim>
					<dim>14</dim>
					<dim>14</dim>
				</port>
			</output>
		</layer>
		<layer id="291" name="Conv_132/WithoutBiases" type="Convolution" version="opset1">
			<data auto_pad="explicit" strides="1,1" dilations="1,1" pads_begin="0,0" pads_end="0,0"/>
			<input>
				<port id="0">
					<dim>1</dim>
					<dim>200</dim>
					<dim>14</dim>
					<dim>14</dim>
				</port>
				<port id="1">
					<dim>80</dim>
					<dim>200</dim>
					<dim>1</dim>
					<dim>1</dim>
				</port>
			</input>
			<output>
				<port id="2" precision="FP32">
					<dim>1</dim>
					<dim>80</dim>
					<dim>14</dim>
					<dim>14</dim>
				</port>
			</output>
		</layer>
		<layer id="292" name="Conv_132/Dims6738" type="Const" version="opset1">
			<data offset="13539508" size="320" shape="1,80,1,1" element_type="f32"/>
			<output>
				<port id="0" precision="FP32">
					<dim>1</dim>
					<dim>80</dim>
					<dim>1</dim>
					<dim>1</dim>
				</port>
			</output>
		</layer>
		<layer id="293" name="Conv_132" type="Add" version="opset1">
			<data auto_broadcast="numpy"/>
			<input>
				<port id="0">
					<dim>1</dim>
					<dim>80</dim>
					<dim>14</dim>
					<dim>14</dim>
				</port>
				<port id="1">
					<dim>1</dim>
					<dim>80</dim>
					<dim>1</dim>
					<dim>1</dim>
				</port>
			</input>
			<output>
				<port id="2" precision="FP32" names="885">
					<dim>1</dim>
					<dim>80</dim>
					<dim>14</dim>
					<dim>14</dim>
				</port>
			</output>
		</layer>
		<layer id="294" name="Add_133" type="Add" version="opset1">
			<data auto_broadcast="numpy"/>
			<input>
				<port id="0">
					<dim>1</dim>
					<dim>80</dim>
					<dim>14</dim>
					<dim>14</dim>
				</port>
				<port id="1">
					<dim>1</dim>
					<dim>80</dim>
					<dim>14</dim>
					<dim>14</dim>
				</port>
			</input>
			<output>
				<port id="2" precision="FP32" names="498">
					<dim>1</dim>
					<dim>80</dim>
					<dim>14</dim>
					<dim>14</dim>
				</port>
			</output>
		</layer>
		<layer id="295" name="895" type="Const" version="opset1">
			<data offset="13539828" size="58880" shape="80,184,1,1" element_type="f32"/>
			<output>
				<port id="0" precision="FP32" names="895">
					<dim>80</dim>
					<dim>184</dim>
					<dim>1</dim>
					<dim>1</dim>
				</port>
			</output>
		</layer>
		<layer id="296" name="889" type="Const" version="opset1">
			<data offset="13598708" size="58880" shape="184,80,1,1" element_type="f32"/>
			<output>
				<port id="0" precision="FP32" names="889">
					<dim>184</dim>
					<dim>80</dim>
					<dim>1</dim>
					<dim>1</dim>
				</port>
			</output>
		</layer>
		<layer id="297" name="Conv_134/WithoutBiases" type="Convolution" version="opset1">
			<data auto_pad="explicit" strides="1,1" dilations="1,1" pads_begin="0,0" pads_end="0,0"/>
			<input>
				<port id="0">
					<dim>1</dim>
					<dim>80</dim>
					<dim>14</dim>
					<dim>14</dim>
				</port>
				<port id="1">
					<dim>184</dim>
					<dim>80</dim>
					<dim>1</dim>
					<dim>1</dim>
				</port>
			</input>
			<output>
				<port id="2" precision="FP32">
					<dim>1</dim>
					<dim>184</dim>
					<dim>14</dim>
					<dim>14</dim>
				</port>
			</output>
		</layer>
		<layer id="298" name="Conv_134/Dims6750" type="Const" version="opset1">
			<data offset="13657588" size="736" shape="1,184,1,1" element_type="f32"/>
			<output>
				<port id="0" precision="FP32">
					<dim>1</dim>
					<dim>184</dim>
					<dim>1</dim>
					<dim>1</dim>
				</port>
			</output>
		</layer>
		<layer id="299" name="Conv_134" type="Add" version="opset1">
			<data auto_broadcast="numpy"/>
			<input>
				<port id="0">
					<dim>1</dim>
					<dim>184</dim>
					<dim>14</dim>
					<dim>14</dim>
				</port>
				<port id="1">
					<dim>1</dim>
					<dim>184</dim>
					<dim>1</dim>
					<dim>1</dim>
				</port>
			</input>
			<output>
				<port id="2" precision="FP32" names="888">
					<dim>1</dim>
					<dim>184</dim>
					<dim>14</dim>
					<dim>14</dim>
				</port>
			</output>
		</layer>
		<layer id="300" name="968" type="Const" version="opset1">
			<data offset="13520784" size="4" shape="1,1,1,1" element_type="f32"/>
			<output>
				<port id="0" precision="FP32" names="968">
					<dim>1</dim>
					<dim>1</dim>
					<dim>1</dim>
					<dim>1</dim>
				</port>
			</output>
		</layer>
		<layer id="301" name="Constant_135" type="Const" version="opset1">
			<data offset="13393160" size="4" shape="1,1,1,1" element_type="f32"/>
			<output>
				<port id="0" precision="FP32" names="501">
					<dim>1</dim>
					<dim>1</dim>
					<dim>1</dim>
					<dim>1</dim>
				</port>
			</output>
		</layer>
		<layer id="302" name="Add_136" type="Add" version="opset1">
			<data auto_broadcast="numpy"/>
			<input>
				<port id="0">
					<dim>1</dim>
					<dim>184</dim>
					<dim>14</dim>
					<dim>14</dim>
				</port>
				<port id="1">
					<dim>1</dim>
					<dim>1</dim>
					<dim>1</dim>
					<dim>1</dim>
				</port>
			</input>
			<output>
				<port id="2" precision="FP32" names="502">
					<dim>1</dim>
					<dim>184</dim>
					<dim>14</dim>
					<dim>14</dim>
				</port>
			</output>
		</layer>
		<layer id="303" name="Clip_137" type="Clamp" version="opset1">
			<data max="6.0" min="0.0"/>
			<input>
				<port id="0">
					<dim>1</dim>
					<dim>184</dim>
					<dim>14</dim>
					<dim>14</dim>
				</port>
			</input>
			<output>
				<port id="1" precision="FP32" names="503">
					<dim>1</dim>
					<dim>184</dim>
					<dim>14</dim>
					<dim>14</dim>
				</port>
			</output>
		</layer>
		<layer id="304" name="Div_138" type="Multiply" version="opset1">
			<data auto_broadcast="numpy"/>
			<input>
				<port id="0">
					<dim>1</dim>
					<dim>184</dim>
					<dim>14</dim>
					<dim>14</dim>
				</port>
				<port id="1">
					<dim>1</dim>
					<dim>1</dim>
					<dim>1</dim>
					<dim>1</dim>
				</port>
			</input>
			<output>
				<port id="2" precision="FP32" names="506">
					<dim>1</dim>
					<dim>184</dim>
					<dim>14</dim>
					<dim>14</dim>
				</port>
			</output>
		</layer>
		<layer id="305" name="Mul_139" type="Multiply" version="opset1">
			<data auto_broadcast="numpy"/>
			<input>
				<port id="0">
					<dim>1</dim>
					<dim>184</dim>
					<dim>14</dim>
					<dim>14</dim>
				</port>
				<port id="1">
					<dim>1</dim>
					<dim>184</dim>
					<dim>14</dim>
					<dim>14</dim>
				</port>
			</input>
			<output>
				<port id="2" precision="FP32" names="507">
					<dim>1</dim>
					<dim>184</dim>
					<dim>14</dim>
					<dim>14</dim>
				</port>
			</output>
		</layer>
		<layer id="306" name="892" type="Const" version="opset1">
			<data offset="13658324" size="6624" shape="184,1,1,3,3" element_type="f32"/>
			<output>
				<port id="0" precision="FP32" names="892">
					<dim>184</dim>
					<dim>1</dim>
					<dim>1</dim>
					<dim>3</dim>
					<dim>3</dim>
				</port>
			</output>
		</layer>
		<layer id="307" name="Conv_140/WithoutBiases" type="GroupConvolution" version="opset1">
			<data auto_pad="explicit" strides="1,1" dilations="1,1" pads_begin="1,1" pads_end="1,1"/>
			<input>
				<port id="0">
					<dim>1</dim>
					<dim>184</dim>
					<dim>14</dim>
					<dim>14</dim>
				</port>
				<port id="1">
					<dim>184</dim>
					<dim>1</dim>
					<dim>1</dim>
					<dim>3</dim>
					<dim>3</dim>
				</port>
			</input>
			<output>
				<port id="2" precision="FP32">
					<dim>1</dim>
					<dim>184</dim>
					<dim>14</dim>
					<dim>14</dim>
				</port>
			</output>
		</layer>
		<layer id="308" name="Conv_140/Dims6726" type="Const" version="opset1">
			<data offset="13664948" size="736" shape="1,184,1,1" element_type="f32"/>
			<output>
				<port id="0" precision="FP32">
					<dim>1</dim>
					<dim>184</dim>
					<dim>1</dim>
					<dim>1</dim>
				</port>
			</output>
		</layer>
		<layer id="309" name="Conv_140" type="Add" version="opset1">
			<data auto_broadcast="numpy"/>
			<input>
				<port id="0">
					<dim>1</dim>
					<dim>184</dim>
					<dim>14</dim>
					<dim>14</dim>
				</port>
				<port id="1">
					<dim>1</dim>
					<dim>184</dim>
					<dim>1</dim>
					<dim>1</dim>
				</port>
			</input>
			<output>
				<port id="2" precision="FP32" names="891">
					<dim>1</dim>
					<dim>184</dim>
					<dim>14</dim>
					<dim>14</dim>
				</port>
			</output>
		</layer>
		<layer id="310" name="969" type="Const" version="opset1">
			<data offset="13520784" size="4" shape="1,1,1,1" element_type="f32"/>
			<output>
				<port id="0" precision="FP32" names="969">
					<dim>1</dim>
					<dim>1</dim>
					<dim>1</dim>
					<dim>1</dim>
				</port>
			</output>
		</layer>
		<layer id="311" name="Constant_141" type="Const" version="opset1">
			<data offset="13393160" size="4" shape="1,1,1,1" element_type="f32"/>
			<output>
				<port id="0" precision="FP32" names="510">
					<dim>1</dim>
					<dim>1</dim>
					<dim>1</dim>
					<dim>1</dim>
				</port>
			</output>
		</layer>
		<layer id="312" name="Add_142" type="Add" version="opset1">
			<data auto_broadcast="numpy"/>
			<input>
				<port id="0">
					<dim>1</dim>
					<dim>184</dim>
					<dim>14</dim>
					<dim>14</dim>
				</port>
				<port id="1">
					<dim>1</dim>
					<dim>1</dim>
					<dim>1</dim>
					<dim>1</dim>
				</port>
			</input>
			<output>
				<port id="2" precision="FP32" names="511">
					<dim>1</dim>
					<dim>184</dim>
					<dim>14</dim>
					<dim>14</dim>
				</port>
			</output>
		</layer>
		<layer id="313" name="Clip_143" type="Clamp" version="opset1">
			<data max="6.0" min="0.0"/>
			<input>
				<port id="0">
					<dim>1</dim>
					<dim>184</dim>
					<dim>14</dim>
					<dim>14</dim>
				</port>
			</input>
			<output>
				<port id="1" precision="FP32" names="512">
					<dim>1</dim>
					<dim>184</dim>
					<dim>14</dim>
					<dim>14</dim>
				</port>
			</output>
		</layer>
		<layer id="314" name="Div_144" type="Multiply" version="opset1">
			<data auto_broadcast="numpy"/>
			<input>
				<port id="0">
					<dim>1</dim>
					<dim>184</dim>
					<dim>14</dim>
					<dim>14</dim>
				</port>
				<port id="1">
					<dim>1</dim>
					<dim>1</dim>
					<dim>1</dim>
					<dim>1</dim>
				</port>
			</input>
			<output>
				<port id="2" precision="FP32" names="515">
					<dim>1</dim>
					<dim>184</dim>
					<dim>14</dim>
					<dim>14</dim>
				</port>
			</output>
		</layer>
		<layer id="315" name="Mul_145" type="Multiply" version="opset1">
			<data auto_broadcast="numpy"/>
			<input>
				<port id="0">
					<dim>1</dim>
					<dim>184</dim>
					<dim>14</dim>
					<dim>14</dim>
				</port>
				<port id="1">
					<dim>1</dim>
					<dim>184</dim>
					<dim>14</dim>
					<dim>14</dim>
				</port>
			</input>
			<output>
				<port id="2" precision="FP32" names="516">
					<dim>1</dim>
					<dim>184</dim>
					<dim>14</dim>
					<dim>14</dim>
				</port>
			</output>
		</layer>
		<layer id="316" name="Conv_146/WithoutBiases" type="Convolution" version="opset1">
			<data auto_pad="explicit" strides="1,1" dilations="1,1" pads_begin="0,0" pads_end="0,0"/>
			<input>
				<port id="0">
					<dim>1</dim>
					<dim>184</dim>
					<dim>14</dim>
					<dim>14</dim>
				</port>
				<port id="1">
					<dim>80</dim>
					<dim>184</dim>
					<dim>1</dim>
					<dim>1</dim>
				</port>
			</input>
			<output>
				<port id="2" precision="FP32">
					<dim>1</dim>
					<dim>80</dim>
					<dim>14</dim>
					<dim>14</dim>
				</port>
			</output>
		</layer>
		<layer id="317" name="Conv_146/Dims6690" type="Const" version="opset1">
			<data offset="13665684" size="320" shape="1,80,1,1" element_type="f32"/>
			<output>
				<port id="0" precision="FP32">
					<dim>1</dim>
					<dim>80</dim>
					<dim>1</dim>
					<dim>1</dim>
				</port>
			</output>
		</layer>
		<layer id="318" name="Conv_146" type="Add" version="opset1">
			<data auto_broadcast="numpy"/>
			<input>
				<port id="0">
					<dim>1</dim>
					<dim>80</dim>
					<dim>14</dim>
					<dim>14</dim>
				</port>
				<port id="1">
					<dim>1</dim>
					<dim>80</dim>
					<dim>1</dim>
					<dim>1</dim>
				</port>
			</input>
			<output>
				<port id="2" precision="FP32" names="894">
					<dim>1</dim>
					<dim>80</dim>
					<dim>14</dim>
					<dim>14</dim>
				</port>
			</output>
		</layer>
		<layer id="319" name="Add_147" type="Add" version="opset1">
			<data auto_broadcast="numpy"/>
			<input>
				<port id="0">
					<dim>1</dim>
					<dim>80</dim>
					<dim>14</dim>
					<dim>14</dim>
				</port>
				<port id="1">
					<dim>1</dim>
					<dim>80</dim>
					<dim>14</dim>
					<dim>14</dim>
				</port>
			</input>
			<output>
				<port id="2" precision="FP32" names="519">
					<dim>1</dim>
					<dim>80</dim>
					<dim>14</dim>
					<dim>14</dim>
				</port>
			</output>
		</layer>
		<layer id="320" name="904" type="Const" version="opset1">
			<data offset="13666004" size="58880" shape="80,184,1,1" element_type="f32"/>
			<output>
				<port id="0" precision="FP32" names="904">
					<dim>80</dim>
					<dim>184</dim>
					<dim>1</dim>
					<dim>1</dim>
				</port>
			</output>
		</layer>
		<layer id="321" name="898" type="Const" version="opset1">
			<data offset="13724884" size="58880" shape="184,80,1,1" element_type="f32"/>
			<output>
				<port id="0" precision="FP32" names="898">
					<dim>184</dim>
					<dim>80</dim>
					<dim>1</dim>
					<dim>1</dim>
				</port>
			</output>
		</layer>
		<layer id="322" name="Conv_148/WithoutBiases" type="Convolution" version="opset1">
			<data auto_pad="explicit" strides="1,1" dilations="1,1" pads_begin="0,0" pads_end="0,0"/>
			<input>
				<port id="0">
					<dim>1</dim>
					<dim>80</dim>
					<dim>14</dim>
					<dim>14</dim>
				</port>
				<port id="1">
					<dim>184</dim>
					<dim>80</dim>
					<dim>1</dim>
					<dim>1</dim>
				</port>
			</input>
			<output>
				<port id="2" precision="FP32">
					<dim>1</dim>
					<dim>184</dim>
					<dim>14</dim>
					<dim>14</dim>
				</port>
			</output>
		</layer>
		<layer id="323" name="Conv_148/Dims6774" type="Const" version="opset1">
			<data offset="13783764" size="736" shape="1,184,1,1" element_type="f32"/>
			<output>
				<port id="0" precision="FP32">
					<dim>1</dim>
					<dim>184</dim>
					<dim>1</dim>
					<dim>1</dim>
				</port>
			</output>
		</layer>
		<layer id="324" name="Conv_148" type="Add" version="opset1">
			<data auto_broadcast="numpy"/>
			<input>
				<port id="0">
					<dim>1</dim>
					<dim>184</dim>
					<dim>14</dim>
					<dim>14</dim>
				</port>
				<port id="1">
					<dim>1</dim>
					<dim>184</dim>
					<dim>1</dim>
					<dim>1</dim>
				</port>
			</input>
			<output>
				<port id="2" precision="FP32" names="897">
					<dim>1</dim>
					<dim>184</dim>
					<dim>14</dim>
					<dim>14</dim>
				</port>
			</output>
		</layer>
		<layer id="325" name="970" type="Const" version="opset1">
			<data offset="13520784" size="4" shape="1,1,1,1" element_type="f32"/>
			<output>
				<port id="0" precision="FP32" names="970">
					<dim>1</dim>
					<dim>1</dim>
					<dim>1</dim>
					<dim>1</dim>
				</port>
			</output>
		</layer>
		<layer id="326" name="Constant_149" type="Const" version="opset1">
			<data offset="13393160" size="4" shape="1,1,1,1" element_type="f32"/>
			<output>
				<port id="0" precision="FP32" names="522">
					<dim>1</dim>
					<dim>1</dim>
					<dim>1</dim>
					<dim>1</dim>
				</port>
			</output>
		</layer>
		<layer id="327" name="Add_150" type="Add" version="opset1">
			<data auto_broadcast="numpy"/>
			<input>
				<port id="0">
					<dim>1</dim>
					<dim>184</dim>
					<dim>14</dim>
					<dim>14</dim>
				</port>
				<port id="1">
					<dim>1</dim>
					<dim>1</dim>
					<dim>1</dim>
					<dim>1</dim>
				</port>
			</input>
			<output>
				<port id="2" precision="FP32" names="523">
					<dim>1</dim>
					<dim>184</dim>
					<dim>14</dim>
					<dim>14</dim>
				</port>
			</output>
		</layer>
		<layer id="328" name="Clip_151" type="Clamp" version="opset1">
			<data max="6.0" min="0.0"/>
			<input>
				<port id="0">
					<dim>1</dim>
					<dim>184</dim>
					<dim>14</dim>
					<dim>14</dim>
				</port>
			</input>
			<output>
				<port id="1" precision="FP32" names="524">
					<dim>1</dim>
					<dim>184</dim>
					<dim>14</dim>
					<dim>14</dim>
				</port>
			</output>
		</layer>
		<layer id="329" name="Div_152" type="Multiply" version="opset1">
			<data auto_broadcast="numpy"/>
			<input>
				<port id="0">
					<dim>1</dim>
					<dim>184</dim>
					<dim>14</dim>
					<dim>14</dim>
				</port>
				<port id="1">
					<dim>1</dim>
					<dim>1</dim>
					<dim>1</dim>
					<dim>1</dim>
				</port>
			</input>
			<output>
				<port id="2" precision="FP32" names="527">
					<dim>1</dim>
					<dim>184</dim>
					<dim>14</dim>
					<dim>14</dim>
				</port>
			</output>
		</layer>
		<layer id="330" name="Mul_153" type="Multiply" version="opset1">
			<data auto_broadcast="numpy"/>
			<input>
				<port id="0">
					<dim>1</dim>
					<dim>184</dim>
					<dim>14</dim>
					<dim>14</dim>
				</port>
				<port id="1">
					<dim>1</dim>
					<dim>184</dim>
					<dim>14</dim>
					<dim>14</dim>
				</port>
			</input>
			<output>
				<port id="2" precision="FP32" names="528">
					<dim>1</dim>
					<dim>184</dim>
					<dim>14</dim>
					<dim>14</dim>
				</port>
			</output>
		</layer>
		<layer id="331" name="901" type="Const" version="opset1">
			<data offset="13784500" size="6624" shape="184,1,1,3,3" element_type="f32"/>
			<output>
				<port id="0" precision="FP32" names="901">
					<dim>184</dim>
					<dim>1</dim>
					<dim>1</dim>
					<dim>3</dim>
					<dim>3</dim>
				</port>
			</output>
		</layer>
		<layer id="332" name="Conv_154/WithoutBiases" type="GroupConvolution" version="opset1">
			<data auto_pad="explicit" strides="1,1" dilations="1,1" pads_begin="1,1" pads_end="1,1"/>
			<input>
				<port id="0">
					<dim>1</dim>
					<dim>184</dim>
					<dim>14</dim>
					<dim>14</dim>
				</port>
				<port id="1">
					<dim>184</dim>
					<dim>1</dim>
					<dim>1</dim>
					<dim>3</dim>
					<dim>3</dim>
				</port>
			</input>
			<output>
				<port id="2" precision="FP32">
					<dim>1</dim>
					<dim>184</dim>
					<dim>14</dim>
					<dim>14</dim>
				</port>
			</output>
		</layer>
		<layer id="333" name="Conv_154/Dims6672" type="Const" version="opset1">
			<data offset="13791124" size="736" shape="1,184,1,1" element_type="f32"/>
			<output>
				<port id="0" precision="FP32">
					<dim>1</dim>
					<dim>184</dim>
					<dim>1</dim>
					<dim>1</dim>
				</port>
			</output>
		</layer>
		<layer id="334" name="Conv_154" type="Add" version="opset1">
			<data auto_broadcast="numpy"/>
			<input>
				<port id="0">
					<dim>1</dim>
					<dim>184</dim>
					<dim>14</dim>
					<dim>14</dim>
				</port>
				<port id="1">
					<dim>1</dim>
					<dim>184</dim>
					<dim>1</dim>
					<dim>1</dim>
				</port>
			</input>
			<output>
				<port id="2" precision="FP32" names="900">
					<dim>1</dim>
					<dim>184</dim>
					<dim>14</dim>
					<dim>14</dim>
				</port>
			</output>
		</layer>
		<layer id="335" name="971" type="Const" version="opset1">
			<data offset="13520784" size="4" shape="1,1,1,1" element_type="f32"/>
			<output>
				<port id="0" precision="FP32" names="971">
					<dim>1</dim>
					<dim>1</dim>
					<dim>1</dim>
					<dim>1</dim>
				</port>
			</output>
		</layer>
		<layer id="336" name="Constant_155" type="Const" version="opset1">
			<data offset="13393160" size="4" shape="1,1,1,1" element_type="f32"/>
			<output>
				<port id="0" precision="FP32" names="531">
					<dim>1</dim>
					<dim>1</dim>
					<dim>1</dim>
					<dim>1</dim>
				</port>
			</output>
		</layer>
		<layer id="337" name="Add_156" type="Add" version="opset1">
			<data auto_broadcast="numpy"/>
			<input>
				<port id="0">
					<dim>1</dim>
					<dim>184</dim>
					<dim>14</dim>
					<dim>14</dim>
				</port>
				<port id="1">
					<dim>1</dim>
					<dim>1</dim>
					<dim>1</dim>
					<dim>1</dim>
				</port>
			</input>
			<output>
				<port id="2" precision="FP32" names="532">
					<dim>1</dim>
					<dim>184</dim>
					<dim>14</dim>
					<dim>14</dim>
				</port>
			</output>
		</layer>
		<layer id="338" name="Clip_157" type="Clamp" version="opset1">
			<data max="6.0" min="0.0"/>
			<input>
				<port id="0">
					<dim>1</dim>
					<dim>184</dim>
					<dim>14</dim>
					<dim>14</dim>
				</port>
			</input>
			<output>
				<port id="1" precision="FP32" names="533">
					<dim>1</dim>
					<dim>184</dim>
					<dim>14</dim>
					<dim>14</dim>
				</port>
			</output>
		</layer>
		<layer id="339" name="Div_158" type="Multiply" version="opset1">
			<data auto_broadcast="numpy"/>
			<input>
				<port id="0">
					<dim>1</dim>
					<dim>184</dim>
					<dim>14</dim>
					<dim>14</dim>
				</port>
				<port id="1">
					<dim>1</dim>
					<dim>1</dim>
					<dim>1</dim>
					<dim>1</dim>
				</port>
			</input>
			<output>
				<port id="2" precision="FP32" names="536">
					<dim>1</dim>
					<dim>184</dim>
					<dim>14</dim>
					<dim>14</dim>
				</port>
			</output>
		</layer>
		<layer id="340" name="Mul_159" type="Multiply" version="opset1">
			<data auto_broadcast="numpy"/>
			<input>
				<port id="0">
					<dim>1</dim>
					<dim>184</dim>
					<dim>14</dim>
					<dim>14</dim>
				</port>
				<port id="1">
					<dim>1</dim>
					<dim>184</dim>
					<dim>14</dim>
					<dim>14</dim>
				</port>
			</input>
			<output>
				<port id="2" precision="FP32" names="537">
					<dim>1</dim>
					<dim>184</dim>
					<dim>14</dim>
					<dim>14</dim>
				</port>
			</output>
		</layer>
		<layer id="341" name="Conv_160/WithoutBiases" type="Convolution" version="opset1">
			<data auto_pad="explicit" strides="1,1" dilations="1,1" pads_begin="0,0" pads_end="0,0"/>
			<input>
				<port id="0">
					<dim>1</dim>
					<dim>184</dim>
					<dim>14</dim>
					<dim>14</dim>
				</port>
				<port id="1">
					<dim>80</dim>
					<dim>184</dim>
					<dim>1</dim>
					<dim>1</dim>
				</port>
			</input>
			<output>
				<port id="2" precision="FP32">
					<dim>1</dim>
					<dim>80</dim>
					<dim>14</dim>
					<dim>14</dim>
				</port>
			</output>
		</layer>
		<layer id="342" name="Conv_160/Dims6714" type="Const" version="opset1">
			<data offset="13791860" size="320" shape="1,80,1,1" element_type="f32"/>
			<output>
				<port id="0" precision="FP32">
					<dim>1</dim>
					<dim>80</dim>
					<dim>1</dim>
					<dim>1</dim>
				</port>
			</output>
		</layer>
		<layer id="343" name="Conv_160" type="Add" version="opset1">
			<data auto_broadcast="numpy"/>
			<input>
				<port id="0">
					<dim>1</dim>
					<dim>80</dim>
					<dim>14</dim>
					<dim>14</dim>
				</port>
				<port id="1">
					<dim>1</dim>
					<dim>80</dim>
					<dim>1</dim>
					<dim>1</dim>
				</port>
			</input>
			<output>
				<port id="2" precision="FP32" names="903">
					<dim>1</dim>
					<dim>80</dim>
					<dim>14</dim>
					<dim>14</dim>
				</port>
			</output>
		</layer>
		<layer id="344" name="Add_161" type="Add" version="opset1">
			<data auto_broadcast="numpy"/>
			<input>
				<port id="0">
					<dim>1</dim>
					<dim>80</dim>
					<dim>14</dim>
					<dim>14</dim>
				</port>
				<port id="1">
					<dim>1</dim>
					<dim>80</dim>
					<dim>14</dim>
					<dim>14</dim>
				</port>
			</input>
			<output>
				<port id="2" precision="FP32" names="540">
					<dim>1</dim>
					<dim>80</dim>
					<dim>14</dim>
					<dim>14</dim>
				</port>
			</output>
		</layer>
		<layer id="345" name="Conv_162/WithoutBiases" type="Convolution" version="opset1">
			<data auto_pad="explicit" strides="1,1" dilations="1,1" pads_begin="0,0" pads_end="0,0"/>
			<input>
				<port id="0">
					<dim>1</dim>
					<dim>80</dim>
					<dim>14</dim>
					<dim>14</dim>
				</port>
				<port id="1">
					<dim>480</dim>
					<dim>80</dim>
					<dim>1</dim>
					<dim>1</dim>
				</port>
			</input>
			<output>
				<port id="2" precision="FP32">
					<dim>1</dim>
					<dim>480</dim>
					<dim>14</dim>
					<dim>14</dim>
				</port>
			</output>
		</layer>
		<layer id="346" name="Conv_162/Dims6696" type="Const" version="opset1">
			<data offset="13792180" size="1920" shape="1,480,1,1" element_type="f32"/>
			<output>
				<port id="0" precision="FP32">
					<dim>1</dim>
					<dim>480</dim>
					<dim>1</dim>
					<dim>1</dim>
				</port>
			</output>
		</layer>
		<layer id="347" name="Conv_162" type="Add" version="opset1">
			<data auto_broadcast="numpy"/>
			<input>
				<port id="0">
					<dim>1</dim>
					<dim>480</dim>
					<dim>14</dim>
					<dim>14</dim>
				</port>
				<port id="1">
					<dim>1</dim>
					<dim>480</dim>
					<dim>1</dim>
					<dim>1</dim>
				</port>
			</input>
			<output>
				<port id="2" precision="FP32" names="906">
					<dim>1</dim>
					<dim>480</dim>
					<dim>14</dim>
					<dim>14</dim>
				</port>
			</output>
		</layer>
		<layer id="348" name="972" type="Const" version="opset1">
			<data offset="13520784" size="4" shape="1,1,1,1" element_type="f32"/>
			<output>
				<port id="0" precision="FP32" names="972">
					<dim>1</dim>
					<dim>1</dim>
					<dim>1</dim>
					<dim>1</dim>
				</port>
			</output>
		</layer>
		<layer id="349" name="Constant_163" type="Const" version="opset1">
			<data offset="13393160" size="4" shape="1,1,1,1" element_type="f32"/>
			<output>
				<port id="0" precision="FP32" names="543">
					<dim>1</dim>
					<dim>1</dim>
					<dim>1</dim>
					<dim>1</dim>
				</port>
			</output>
		</layer>
		<layer id="350" name="Add_164" type="Add" version="opset1">
			<data auto_broadcast="numpy"/>
			<input>
				<port id="0">
					<dim>1</dim>
					<dim>480</dim>
					<dim>14</dim>
					<dim>14</dim>
				</port>
				<port id="1">
					<dim>1</dim>
					<dim>1</dim>
					<dim>1</dim>
					<dim>1</dim>
				</port>
			</input>
			<output>
				<port id="2" precision="FP32" names="544">
					<dim>1</dim>
					<dim>480</dim>
					<dim>14</dim>
					<dim>14</dim>
				</port>
			</output>
		</layer>
		<layer id="351" name="Clip_165" type="Clamp" version="opset1">
			<data max="6.0" min="0.0"/>
			<input>
				<port id="0">
					<dim>1</dim>
					<dim>480</dim>
					<dim>14</dim>
					<dim>14</dim>
				</port>
			</input>
			<output>
				<port id="1" precision="FP32" names="545">
					<dim>1</dim>
					<dim>480</dim>
					<dim>14</dim>
					<dim>14</dim>
				</port>
			</output>
		</layer>
		<layer id="352" name="Div_166" type="Multiply" version="opset1">
			<data auto_broadcast="numpy"/>
			<input>
				<port id="0">
					<dim>1</dim>
					<dim>480</dim>
					<dim>14</dim>
					<dim>14</dim>
				</port>
				<port id="1">
					<dim>1</dim>
					<dim>1</dim>
					<dim>1</dim>
					<dim>1</dim>
				</port>
			</input>
			<output>
				<port id="2" precision="FP32" names="548">
					<dim>1</dim>
					<dim>480</dim>
					<dim>14</dim>
					<dim>14</dim>
				</port>
			</output>
		</layer>
		<layer id="353" name="Mul_167" type="Multiply" version="opset1">
			<data auto_broadcast="numpy"/>
			<input>
				<port id="0">
					<dim>1</dim>
					<dim>480</dim>
					<dim>14</dim>
					<dim>14</dim>
				</port>
				<port id="1">
					<dim>1</dim>
					<dim>480</dim>
					<dim>14</dim>
					<dim>14</dim>
				</port>
			</input>
			<output>
				<port id="2" precision="FP32" names="549">
					<dim>1</dim>
					<dim>480</dim>
					<dim>14</dim>
					<dim>14</dim>
				</port>
			</output>
		</layer>
		<layer id="354" name="910" type="Const" version="opset1">
			<data offset="13794100" size="17280" shape="480,1,1,3,3" element_type="f32"/>
			<output>
				<port id="0" precision="FP32" names="910">
					<dim>480</dim>
					<dim>1</dim>
					<dim>1</dim>
					<dim>3</dim>
					<dim>3</dim>
				</port>
			</output>
		</layer>
		<layer id="355" name="Conv_168/WithoutBiases" type="GroupConvolution" version="opset1">
			<data auto_pad="explicit" strides="1,1" dilations="1,1" pads_begin="1,1" pads_end="1,1"/>
			<input>
				<port id="0">
					<dim>1</dim>
					<dim>480</dim>
					<dim>14</dim>
					<dim>14</dim>
				</port>
				<port id="1">
					<dim>480</dim>
					<dim>1</dim>
					<dim>1</dim>
					<dim>3</dim>
					<dim>3</dim>
				</port>
			</input>
			<output>
				<port id="2" precision="FP32">
					<dim>1</dim>
					<dim>480</dim>
					<dim>14</dim>
					<dim>14</dim>
				</port>
			</output>
		</layer>
		<layer id="356" name="Conv_168/Dims6606" type="Const" version="opset1">
			<data offset="13811380" size="1920" shape="1,480,1,1" element_type="f32"/>
			<output>
				<port id="0" precision="FP32">
					<dim>1</dim>
					<dim>480</dim>
					<dim>1</dim>
					<dim>1</dim>
				</port>
			</output>
		</layer>
		<layer id="357" name="Conv_168" type="Add" version="opset1">
			<data auto_broadcast="numpy"/>
			<input>
				<port id="0">
					<dim>1</dim>
					<dim>480</dim>
					<dim>14</dim>
					<dim>14</dim>
				</port>
				<port id="1">
					<dim>1</dim>
					<dim>480</dim>
					<dim>1</dim>
					<dim>1</dim>
				</port>
			</input>
			<output>
				<port id="2" precision="FP32" names="909">
					<dim>1</dim>
					<dim>480</dim>
					<dim>14</dim>
					<dim>14</dim>
				</port>
			</output>
		</layer>
		<layer id="358" name="625" type="Const" version="opset1">
			<data offset="13422668" size="8" shape="" element_type="i64"/>
			<output>
				<port id="0" precision="I64"/>
			</output>
		</layer>
		<layer id="359" name="627" type="Const" version="opset1">
			<data offset="13422676" size="8" shape="" element_type="i64"/>
			<output>
				<port id="0" precision="I64"/>
			</output>
		</layer>
		<layer id="360" name="GlobalAveragePool_175/input_rank/shape_of" type="ShapeOf" version="opset3">
			<data output_type="i64"/>
			<input>
				<port id="0">
					<dim>1</dim>
					<dim>480</dim>
					<dim>14</dim>
					<dim>14</dim>
				</port>
			</input>
			<output>
				<port id="1" precision="I64">
					<dim>4</dim>
				</port>
			</output>
		</layer>
		<layer id="361" name="GlobalAveragePool_175/input_rank/rank_of" type="ShapeOf" version="opset3">
			<data output_type="i64"/>
			<input>
				<port id="0">
					<dim>4</dim>
				</port>
			</input>
			<output>
				<port id="1" precision="I64">
					<dim>1</dim>
				</port>
			</output>
		</layer>
		<layer id="362" name="GlobalAveragePool_175/input_rank/0d_rank_of/value" type="Const" version="opset1">
			<data offset="13422684" size="8" shape="1" element_type="i64"/>
			<output>
				<port id="0" precision="I64">
					<dim>1</dim>
				</port>
			</output>
		</layer>
		<layer id="363" name="GlobalAveragePool_175/input_rank" type="Squeeze" version="opset1">
			<input>
				<port id="0">
					<dim>1</dim>
				</port>
				<port id="1">
					<dim>1</dim>
				</port>
			</input>
			<output>
				<port id="2" precision="I64"/>
			</output>
		</layer>
		<layer id="364" name="GlobalAveragePool_175/global_pooling_reduce_axis" type="Range" version="opset4">
			<data output_type="i64"/>
			<input>
				<port id="0"/>
				<port id="1"/>
				<port id="2"/>
			</input>
			<output>
				<port id="3" precision="I64">
					<dim>2</dim>
				</port>
			</output>
		</layer>
		<layer id="365" name="GlobalAveragePool_175/reduce" type="ReduceMean" version="opset1">
			<data keep_dims="true"/>
			<input>
				<port id="0">
					<dim>1</dim>
					<dim>480</dim>
					<dim>14</dim>
					<dim>14</dim>
				</port>
				<port id="1">
					<dim>2</dim>
				</port>
			</input>
			<output>
				<port id="2" precision="FP32" names="558">
					<dim>1</dim>
					<dim>480</dim>
					<dim>1</dim>
					<dim>1</dim>
				</port>
			</output>
		</layer>
		<layer id="366" name="Unsqueeze_176/Dims" type="Const" version="opset1">
			<data offset="13422684" size="8" shape="1" element_type="i64"/>
			<output>
				<port id="0" precision="I64">
					<dim>1</dim>
				</port>
			</output>
		</layer>
		<layer id="367" name="Shape_169" type="ShapeOf" version="opset3">
			<data output_type="i64"/>
			<input>
				<port id="0">
					<dim>1</dim>
					<dim>480</dim>
					<dim>14</dim>
					<dim>14</dim>
				</port>
			</input>
			<output>
				<port id="1" precision="I64" names="552">
					<dim>4</dim>
				</port>
			</output>
		</layer>
		<layer id="368" name="Constant_170" type="Const" version="opset1">
			<data offset="13422692" size="4" shape="" element_type="i32"/>
			<output>
				<port id="0" precision="I32" names="553"/>
			</output>
		</layer>
		<layer id="369" name="Gather_171/axis" type="Const" version="opset1">
			<data offset="13422684" size="8" shape="" element_type="i64"/>
			<output>
				<port id="0" precision="I64"/>
			</output>
		</layer>
		<layer id="370" name="Gather_171735" type="Gather" version="opset7">
			<data batch_dims="0"/>
			<input>
				<port id="0">
					<dim>4</dim>
				</port>
				<port id="1"/>
				<port id="2"/>
			</input>
			<output>
				<port id="3" precision="I64" names="554"/>
			</output>
		</layer>
		<layer id="371" name="Unsqueeze_176/Unsqueeze" type="Unsqueeze" version="opset1">
			<input>
				<port id="0"/>
				<port id="1">
					<dim>1</dim>
				</port>
			</input>
			<output>
				<port id="2" precision="I64" names="559">
					<dim>1</dim>
				</port>
			</output>
		</layer>
		<layer id="372" name="Unsqueeze_177/Dims" type="Const" version="opset1">
			<data offset="13422684" size="8" shape="1" element_type="i64"/>
			<output>
				<port id="0" precision="I64">
					<dim>1</dim>
				</port>
			</output>
		</layer>
		<layer id="373" name="Shape_172" type="ShapeOf" version="opset3">
			<data output_type="i64"/>
			<input>
				<port id="0">
					<dim>1</dim>
					<dim>480</dim>
					<dim>14</dim>
					<dim>14</dim>
				</port>
			</input>
			<output>
				<port id="1" precision="I64" names="555">
					<dim>4</dim>
				</port>
			</output>
		</layer>
		<layer id="374" name="Constant_173" type="Const" version="opset1">
			<data offset="13422696" size="4" shape="" element_type="i32"/>
			<output>
				<port id="0" precision="I32" names="556"/>
			</output>
		</layer>
		<layer id="375" name="Gather_174/axis" type="Const" version="opset1">
			<data offset="13422684" size="8" shape="" element_type="i64"/>
			<output>
				<port id="0" precision="I64"/>
			</output>
		</layer>
		<layer id="376" name="Gather_174721" type="Gather" version="opset7">
			<data batch_dims="0"/>
			<input>
				<port id="0">
					<dim>4</dim>
				</port>
				<port id="1"/>
				<port id="2"/>
			</input>
			<output>
				<port id="3" precision="I64" names="557"/>
			</output>
		</layer>
		<layer id="377" name="Unsqueeze_177/Unsqueeze" type="Unsqueeze" version="opset1">
			<input>
				<port id="0"/>
				<port id="1">
					<dim>1</dim>
				</port>
			</input>
			<output>
				<port id="2" precision="I64" names="560">
					<dim>1</dim>
				</port>
			</output>
		</layer>
		<layer id="378" name="Concat_178" type="Concat" version="opset1">
			<data axis="0"/>
			<input>
				<port id="0">
					<dim>1</dim>
				</port>
				<port id="1">
					<dim>1</dim>
				</port>
			</input>
			<output>
				<port id="2" precision="I64" names="561">
					<dim>2</dim>
				</port>
			</output>
		</layer>
		<layer id="379" name="Reshape_179" type="Reshape" version="opset1">
			<data special_zero="true"/>
			<input>
				<port id="0">
					<dim>1</dim>
					<dim>480</dim>
					<dim>1</dim>
					<dim>1</dim>
				</port>
				<port id="1">
					<dim>2</dim>
				</port>
			</input>
			<output>
				<port id="2" precision="FP32" names="562">
					<dim>1</dim>
					<dim>480</dim>
				</port>
			</output>
		</layer>
		<layer id="380" name="Gemm_180/WithoutBiases" type="MatMul" version="opset1">
			<data transpose_a="false" transpose_b="true"/>
			<input>
				<port id="0">
					<dim>1</dim>
					<dim>480</dim>
				</port>
				<port id="1">
					<dim>120</dim>
					<dim>480</dim>
				</port>
			</input>
			<output>
				<port id="2" precision="FP32">
					<dim>1</dim>
					<dim>120</dim>
				</port>
			</output>
		</layer>
		<layer id="381" name="features.11.conv.5.fc.0.bias" type="Const" version="opset1">
			<data offset="13813300" size="480" shape="1,120" element_type="f32"/>
			<output>
				<port id="0" precision="FP32" names="features.11.conv.5.fc.0.bias">
					<dim>1</dim>
					<dim>120</dim>
				</port>
			</output>
		</layer>
		<layer id="382" name="Gemm_180" type="Add" version="opset1">
			<data auto_broadcast="numpy"/>
			<input>
				<port id="0">
					<dim>1</dim>
					<dim>120</dim>
				</port>
				<port id="1">
					<dim>1</dim>
					<dim>120</dim>
				</port>
			</input>
			<output>
				<port id="2" precision="FP32" names="563">
					<dim>1</dim>
					<dim>120</dim>
				</port>
			</output>
		</layer>
		<layer id="383" name="Relu_181" type="ReLU" version="opset1">
			<input>
				<port id="0">
					<dim>1</dim>
					<dim>120</dim>
				</port>
			</input>
			<output>
				<port id="1" precision="FP32" names="564">
					<dim>1</dim>
					<dim>120</dim>
				</port>
			</output>
		</layer>
		<layer id="384" name="Gemm_182/WithoutBiases" type="MatMul" version="opset1">
			<data transpose_a="false" transpose_b="true"/>
			<input>
				<port id="0">
					<dim>1</dim>
					<dim>120</dim>
				</port>
				<port id="1">
					<dim>480</dim>
					<dim>120</dim>
				</port>
			</input>
			<output>
				<port id="2" precision="FP32">
					<dim>1</dim>
					<dim>480</dim>
				</port>
			</output>
		</layer>
		<layer id="385" name="data_add_1089610898" type="Const" version="opset1">
			<data offset="13813780" size="1920" shape="1,480" element_type="f32"/>
			<output>
				<port id="0" precision="FP32">
					<dim>1</dim>
					<dim>480</dim>
				</port>
			</output>
		</layer>
		<layer id="386" name="Gemm_182/Fused_Add_" type="Add" version="opset1">
			<data auto_broadcast="numpy"/>
			<input>
				<port id="0">
					<dim>1</dim>
					<dim>480</dim>
				</port>
				<port id="1">
					<dim>1</dim>
					<dim>480</dim>
				</port>
			</input>
			<output>
				<port id="2" precision="FP32" names="567">
					<dim>1</dim>
					<dim>480</dim>
				</port>
			</output>
		</layer>
		<layer id="387" name="Clip_185" type="Clamp" version="opset1">
			<data max="6.0" min="0.0"/>
			<input>
				<port id="0">
					<dim>1</dim>
					<dim>480</dim>
				</port>
			</input>
			<output>
				<port id="1" precision="FP32" names="568">
					<dim>1</dim>
					<dim>480</dim>
				</port>
			</output>
		</layer>
		<layer id="388" name="Div_186" type="Multiply" version="opset1">
			<data auto_broadcast="numpy"/>
			<input>
				<port id="0">
					<dim>1</dim>
					<dim>480</dim>
				</port>
				<port id="1">
					<dim>1</dim>
					<dim>1</dim>
				</port>
			</input>
			<output>
				<port id="2" precision="FP32" names="571">
					<dim>1</dim>
					<dim>480</dim>
				</port>
			</output>
		</layer>
		<layer id="389" name="974" type="Const" version="opset1">
			<data offset="13422676" size="8" shape="1" element_type="i64"/>
			<output>
				<port id="0" precision="I64" names="974">
					<dim>1</dim>
				</port>
			</output>
		</layer>
		<layer id="390" name="975" type="Const" version="opset1">
			<data offset="13422676" size="8" shape="1" element_type="i64"/>
			<output>
				<port id="0" precision="I64" names="975">
					<dim>1</dim>
				</port>
			</output>
		</layer>
		<layer id="391" name="Unsqueeze_187/Dims" type="Const" version="opset1">
			<data offset="13422684" size="8" shape="1" element_type="i64"/>
			<output>
				<port id="0" precision="I64">
					<dim>1</dim>
				</port>
			</output>
		</layer>
		<layer id="392" name="Unsqueeze_187/Unsqueeze" type="Unsqueeze" version="opset1">
			<input>
				<port id="0"/>
				<port id="1">
					<dim>1</dim>
				</port>
			</input>
			<output>
				<port id="2" precision="I64" names="574">
					<dim>1</dim>
				</port>
			</output>
		</layer>
		<layer id="393" name="Unsqueeze_188/Dims" type="Const" version="opset1">
			<data offset="13422684" size="8" shape="1" element_type="i64"/>
			<output>
				<port id="0" precision="I64">
					<dim>1</dim>
				</port>
			</output>
		</layer>
		<layer id="394" name="Unsqueeze_188/Unsqueeze" type="Unsqueeze" version="opset1">
			<input>
				<port id="0"/>
				<port id="1">
					<dim>1</dim>
				</port>
			</input>
			<output>
				<port id="2" precision="I64" names="575">
					<dim>1</dim>
				</port>
			</output>
		</layer>
		<layer id="395" name="Concat_189" type="Concat" version="opset1">
			<data axis="0"/>
			<input>
				<port id="0">
					<dim>1</dim>
				</port>
				<port id="1">
					<dim>1</dim>
				</port>
				<port id="2">
					<dim>1</dim>
				</port>
				<port id="3">
					<dim>1</dim>
				</port>
			</input>
			<output>
				<port id="4" precision="I64" names="578">
					<dim>4</dim>
				</port>
			</output>
		</layer>
		<layer id="396" name="Reshape_190" type="Reshape" version="opset1">
			<data special_zero="true"/>
			<input>
				<port id="0">
					<dim>1</dim>
					<dim>480</dim>
				</port>
				<port id="1">
					<dim>4</dim>
				</port>
			</input>
			<output>
				<port id="2" precision="FP32" names="579">
					<dim>1</dim>
					<dim>480</dim>
					<dim>1</dim>
					<dim>1</dim>
				</port>
			</output>
		</layer>
		<layer id="397" name="Mul_191" type="Multiply" version="opset1">
			<data auto_broadcast="numpy"/>
			<input>
				<port id="0">
					<dim>1</dim>
					<dim>480</dim>
					<dim>14</dim>
					<dim>14</dim>
				</port>
				<port id="1">
					<dim>1</dim>
					<dim>480</dim>
					<dim>1</dim>
					<dim>1</dim>
				</port>
			</input>
			<output>
				<port id="2" precision="FP32" names="580">
					<dim>1</dim>
					<dim>480</dim>
					<dim>14</dim>
					<dim>14</dim>
				</port>
			</output>
		</layer>
		<layer id="398" name="976" type="Const" version="opset1">
			<data offset="13520784" size="4" shape="1,1,1,1" element_type="f32"/>
			<output>
				<port id="0" precision="FP32" names="976">
					<dim>1</dim>
					<dim>1</dim>
					<dim>1</dim>
					<dim>1</dim>
				</port>
			</output>
		</layer>
		<layer id="399" name="Constant_192" type="Const" version="opset1">
			<data offset="13393160" size="4" shape="1,1,1,1" element_type="f32"/>
			<output>
				<port id="0" precision="FP32" names="581">
					<dim>1</dim>
					<dim>1</dim>
					<dim>1</dim>
					<dim>1</dim>
				</port>
			</output>
		</layer>
		<layer id="400" name="Add_193" type="Add" version="opset1">
			<data auto_broadcast="numpy"/>
			<input>
				<port id="0">
					<dim>1</dim>
					<dim>480</dim>
					<dim>14</dim>
					<dim>14</dim>
				</port>
				<port id="1">
					<dim>1</dim>
					<dim>1</dim>
					<dim>1</dim>
					<dim>1</dim>
				</port>
			</input>
			<output>
				<port id="2" precision="FP32" names="582">
					<dim>1</dim>
					<dim>480</dim>
					<dim>14</dim>
					<dim>14</dim>
				</port>
			</output>
		</layer>
		<layer id="401" name="Clip_194" type="Clamp" version="opset1">
			<data max="6.0" min="0.0"/>
			<input>
				<port id="0">
					<dim>1</dim>
					<dim>480</dim>
					<dim>14</dim>
					<dim>14</dim>
				</port>
			</input>
			<output>
				<port id="1" precision="FP32" names="583">
					<dim>1</dim>
					<dim>480</dim>
					<dim>14</dim>
					<dim>14</dim>
				</port>
			</output>
		</layer>
		<layer id="402" name="Div_195" type="Multiply" version="opset1">
			<data auto_broadcast="numpy"/>
			<input>
				<port id="0">
					<dim>1</dim>
					<dim>480</dim>
					<dim>14</dim>
					<dim>14</dim>
				</port>
				<port id="1">
					<dim>1</dim>
					<dim>1</dim>
					<dim>1</dim>
					<dim>1</dim>
				</port>
			</input>
			<output>
				<port id="2" precision="FP32" names="586">
					<dim>1</dim>
					<dim>480</dim>
					<dim>14</dim>
					<dim>14</dim>
				</port>
			</output>
		</layer>
		<layer id="403" name="Mul_196" type="Multiply" version="opset1">
			<data auto_broadcast="numpy"/>
			<input>
				<port id="0">
					<dim>1</dim>
					<dim>480</dim>
					<dim>14</dim>
					<dim>14</dim>
				</port>
				<port id="1">
					<dim>1</dim>
					<dim>480</dim>
					<dim>14</dim>
					<dim>14</dim>
				</port>
			</input>
			<output>
				<port id="2" precision="FP32" names="587">
					<dim>1</dim>
					<dim>480</dim>
					<dim>14</dim>
					<dim>14</dim>
				</port>
			</output>
		</layer>
		<layer id="404" name="Conv_197/WithoutBiases" type="Convolution" version="opset1">
			<data auto_pad="explicit" strides="1,1" dilations="1,1" pads_begin="0,0" pads_end="0,0"/>
			<input>
				<port id="0">
					<dim>1</dim>
					<dim>480</dim>
					<dim>14</dim>
					<dim>14</dim>
				</port>
				<port id="1">
					<dim>112</dim>
					<dim>480</dim>
					<dim>1</dim>
					<dim>1</dim>
				</port>
			</input>
			<output>
				<port id="2" precision="FP32">
					<dim>1</dim>
					<dim>112</dim>
					<dim>14</dim>
					<dim>14</dim>
				</port>
			</output>
		</layer>
		<layer id="405" name="Conv_197/Dims6702" type="Const" version="opset1">
			<data offset="13815700" size="448" shape="1,112,1,1" element_type="f32"/>
			<output>
				<port id="0" precision="FP32">
					<dim>1</dim>
					<dim>112</dim>
					<dim>1</dim>
					<dim>1</dim>
				</port>
			</output>
		</layer>
		<layer id="406" name="Conv_197" type="Add" version="opset1">
			<data auto_broadcast="numpy"/>
			<input>
				<port id="0">
					<dim>1</dim>
					<dim>112</dim>
					<dim>14</dim>
					<dim>14</dim>
				</port>
				<port id="1">
					<dim>1</dim>
					<dim>112</dim>
					<dim>1</dim>
					<dim>1</dim>
				</port>
			</input>
			<output>
				<port id="2" precision="FP32" names="912">
					<dim>1</dim>
					<dim>112</dim>
					<dim>14</dim>
					<dim>14</dim>
				</port>
			</output>
		</layer>
		<layer id="407" name="Conv_198/WithoutBiases" type="Convolution" version="opset1">
			<data auto_pad="explicit" strides="1,1" dilations="1,1" pads_begin="0,0" pads_end="0,0"/>
			<input>
				<port id="0">
					<dim>1</dim>
					<dim>112</dim>
					<dim>14</dim>
					<dim>14</dim>
				</port>
…
		<edge from-layer="98" from-port="1" to-layer="100" to-port="0"/>
		<edge from-layer="99" from-port="0" to-layer="100" to-port="1"/>
		<edge from-layer="95" from-port="0" to-layer="101" to-port="0"/>
		<edge from-layer="100" from-port="2" to-layer="101" to-port="1"/>
		<edge from-layer="96" from-port="0" to-layer="101" to-port="2"/>
		<edge from-layer="94" from-port="2" to-layer="102" to-port="0"/>
		<edge from-layer="101" from-port="3" to-layer="102" to-port="1"/>
		<edge from-layer="94" from-port="2" to-layer="104" to-port="0"/>
		<edge from-layer="104" from-port="1" to-layer="107" to-port="0"/>
		<edge from-layer="105" from-port="0" to-layer="107" to-port="1"/>
		<edge from-layer="106" from-port="0" to-layer="107" to-port="2"/>
		<edge from-layer="107" from-port="3" to-layer="108" to-port="0"/>
		<edge from-layer="103" from-port="0" to-layer="108" to-port="1"/>
		<edge from-layer="94" from-port="2" to-layer="110" to-port="0"/>
		<edge from-layer="110" from-port="1" to-layer="113" to-port="0"/>
		<edge from-layer="111" from-port="0" to-layer="113" to-port="1"/>
		<edge from-layer="112" from-port="0" to-layer="113" to-port="2"/>
		<edge from-layer="113" from-port="3" to-layer="114" to-port="0"/>
		<edge from-layer="109" from-port="0" to-layer="114" to-port="1"/>
		<edge from-layer="108" from-port="2" to-layer="115" to-port="0"/>
		<edge from-layer="114" from-port="2" to-layer="115" to-port="1"/>
		<edge from-layer="102" from-port="2" to-layer="116" to-port="0"/>
		<edge from-layer="115" from-port="2" to-layer="116" to-port="1"/>
		<edge from-layer="116" from-port="2" to-layer="117" to-port="0"/>
		<edge from-layer="35" from-port="0" to-layer="117" to-port="1"/>
		<edge from-layer="117" from-port="2" to-layer="119" to-port="0"/>
		<edge from-layer="118" from-port="0" to-layer="119" to-port="1"/>
		<edge from-layer="119" from-port="2" to-layer="120" to-port="0"/>
		<edge from-layer="120" from-port="1" to-layer="121" to-port="0"/>
		<edge from-layer="34" from-port="0" to-layer="121" to-port="1"/>
		<edge from-layer="121" from-port="2" to-layer="123" to-port="0"/>
		<edge from-layer="122" from-port="0" to-layer="123" to-port="1"/>
		<edge from-layer="123" from-port="2" to-layer="124" to-port="0"/>
		<edge from-layer="124" from-port="1" to-layer="125" to-port="0"/>
		<edge from-layer="33" from-port="0" to-layer="125" to-port="1"/>
		<edge from-layer="107" from-port="3" to-layer="129" to-port="0"/>
		<edge from-layer="128" from-port="0" to-layer="129" to-port="1"/>
		<edge from-layer="113" from-port="3" to-layer="131" to-port="0"/>
		<edge from-layer="130" from-port="0" to-layer="131" to-port="1"/>
		<edge from-layer="129" from-port="2" to-layer="132" to-port="0"/>
		<edge from-layer="131" from-port="2" to-layer="132" to-port="1"/>
		<edge from-layer="126" from-port="0" to-layer="132" to-port="2"/>
		<edge from-layer="127" from-port="0" to-layer="132" to-port="3"/>
		<edge from-layer="125" from-port="2" to-layer="133" to-port="0"/>
		<edge from-layer="132" from-port="4" to-layer="133" to-port="1"/>
		<edge from-layer="94" from-port="2" to-layer="134" to-port="0"/>
		<edge from-layer="133" from-port="2" to-layer="134" to-port="1"/>
		<edge from-layer="134" from-port="2" to-layer="135" to-port="0"/>
		<edge from-layer="135" from-port="1" to-layer="136" to-port="0"/>
		<edge from-layer="32" from-port="0" to-layer="136" to-port="1"/>
		<edge from-layer="136" from-port="2" to-layer="138" to-port="0"/>
		<edge from-layer="137" from-port="0" to-layer="138" to-port="1"/>
		<edge from-layer="138" from-port="2" to-layer="139" to-port="0"/>
		<edge from-layer="31" from-port="0" to-layer="139" to-port="1"/>
		<edge from-layer="139" from-port="2" to-layer="141" to-port="0"/>
		<edge from-layer="140" from-port="0" to-layer="141" to-port="1"/>
		<edge from-layer="141" from-port="2" to-layer="142" to-port="0"/>
		<edge from-layer="142" from-port="1" to-layer="144" to-port="0"/>
		<edge from-layer="143" from-port="0" to-layer="144" to-port="1"/>
		<edge from-layer="144" from-port="2" to-layer="146" to-port="0"/>
		<edge from-layer="145" from-port="0" to-layer="146" to-port="1"/>
		<edge from-layer="146" from-port="2" to-layer="149" to-port="0"/>
		<edge from-layer="149" from-port="1" to-layer="150" to-port="0"/>
		<edge from-layer="150" from-port="1" to-layer="152" to-port="0"/>
		<edge from-layer="151" from-port="0" to-layer="152" to-port="1"/>
		<edge from-layer="147" from-port="0" to-layer="153" to-port="0"/>
		<edge from-layer="152" from-port="2" to-layer="153" to-port="1"/>
		<edge from-layer="148" from-port="0" to-layer="153" to-port="2"/>
		<edge from-layer="146" from-port="2" to-layer="154" to-port="0"/>
		<edge from-layer="153" from-port="3" to-layer="154" to-port="1"/>
		<edge from-layer="146" from-port="2" to-layer="156" to-port="0"/>
		<edge from-layer="156" from-port="1" to-layer="159" to-port="0"/>
		<edge from-layer="157" from-port="0" to-layer="159" to-port="1"/>
		<edge from-layer="158" from-port="0" to-layer="159" to-port="2"/>
		<edge from-layer="159" from-port="3" to-layer="160" to-port="0"/>
		<edge from-layer="155" from-port="0" to-layer="160" to-port="1"/>
		<edge from-layer="146" from-port="2" to-layer="162" to-port="0"/>
		<edge from-layer="162" from-port="1" to-layer="165" to-port="0"/>
		<edge from-layer="163" from-port="0" to-layer="165" to-port="1"/>
		<edge from-layer="164" from-port="0" to-layer="165" to-port="2"/>
		<edge from-layer="165" from-port="3" to-layer="166" to-port="0"/>
		<edge from-layer="161" from-port="0" to-layer="166" to-port="1"/>
		<edge from-layer="160" from-port="2" to-layer="167" to-port="0"/>
		<edge from-layer="166" from-port="2" to-layer="167" to-port="1"/>
		<edge from-layer="154" from-port="2" to-layer="168" to-port="0"/>
		<edge from-layer="167" from-port="2" to-layer="168" to-port="1"/>
		<edge from-layer="168" from-port="2" to-layer="169" to-port="0"/>
		<edge from-layer="30" from-port="0" to-layer="169" to-port="1"/>
		<edge from-layer="169" from-port="2" to-layer="171" to-port="0"/>
		<edge from-layer="170" from-port="0" to-layer="171" to-port="1"/>
		<edge from-layer="171" from-port="2" to-layer="172" to-port="0"/>
		<edge from-layer="172" from-port="1" to-layer="173" to-port="0"/>
		<edge from-layer="29" from-port="0" to-layer="173" to-port="1"/>
		<edge from-layer="173" from-port="2" to-layer="175" to-port="0"/>
		<edge from-layer="174" from-port="0" to-layer="175" to-port="1"/>
		<edge from-layer="175" from-port="2" to-layer="176" to-port="0"/>
		<edge from-layer="176" from-port="1" to-layer="177" to-port="0"/>
		<edge from-layer="28" from-port="0" to-layer="177" to-port="1"/>
		<edge from-layer="159" from-port="3" to-layer="181" to-port="0"/>
		<edge from-layer="180" from-port="0" to-layer="181" to-port="1"/>
		<edge from-layer="165" from-port="3" to-layer="183" to-port="0"/>
		<edge from-layer="182" from-port="0" to-layer="183" to-port="1"/>
		<edge from-layer="181" from-port="2" to-layer="184" to-port="0"/>
		<edge from-layer="183" from-port="2" to-layer="184" to-port="1"/>
		<edge from-layer="178" from-port="0" to-layer="184" to-port="2"/>
		<edge from-layer="179" from-port="0" to-layer="184" to-port="3"/>
		<edge from-layer="177" from-port="2" to-layer="185" to-port="0"/>
		<edge from-layer="184" from-port="4" to-layer="185" to-port="1"/>
		<edge from-layer="146" from-port="2" to-layer="186" to-port="0"/>
		<edge from-layer="185" from-port="2" to-layer="186" to-port="1"/>
		<edge from-layer="186" from-port="2" to-layer="187" to-port="0"/>
		<edge from-layer="187" from-port="1" to-layer="188" to-port="0"/>
		<edge from-layer="27" from-port="0" to-layer="188" to-port="1"/>
		<edge from-layer="188" from-port="2" to-layer="190" to-port="0"/>
		<edge from-layer="189" from-port="0" to-layer="190" to-port="1"/>
		<edge from-layer="138" from-port="2" to-layer="191" to-port="0"/>
		<edge from-layer="190" from-port="2" to-layer="191" to-port="1"/>
		<edge from-layer="191" from-port="2" to-layer="197" to-port="0"/>
		<edge from-layer="196" from-port="0" to-layer="197" to-port="1"/>
		<edge from-layer="197" from-port="2" to-layer="199" to-port="0"/>
		<edge from-layer="198" from-port="0" to-layer="199" to-port="1"/>
		<edge from-layer="199" from-port="2" to-layer="200" to-port="0"/>
		<edge from-layer="200" from-port="1" to-layer="202" to-port="0"/>
		<edge from-layer="201" from-port="0" to-layer="202" to-port="1"/>
		<edge from-layer="202" from-port="2" to-layer="204" to-port="0"/>
		<edge from-layer="203" from-port="0" to-layer="204" to-port="1"/>
		<edge from-layer="204" from-port="2" to-layer="207" to-port="0"/>
		<edge from-layer="207" from-port="1" to-layer="208" to-port="0"/>
		<edge from-layer="208" from-port="1" to-layer="210" to-port="0"/>
		<edge from-layer="209" from-port="0" to-layer="210" to-port="1"/>
		<edge from-layer="205" from-port="0" to-layer="211" to-port="0"/>
		<edge from-layer="210" from-port="2" to-layer="211" to-port="1"/>
		<edge from-layer="206" from-port="0" to-layer="211" to-port="2"/>
		<edge from-layer="204" from-port="2" to-layer="212" to-port="0"/>
		<edge from-layer="211" from-port="3" to-layer="212" to-port="1"/>
		<edge from-layer="204" from-port="2" to-layer="214" to-port="0"/>
		<edge from-layer="214" from-port="1" to-layer="217" to-port="0"/>
		<edge from-layer="215" from-port="0" to-layer="217" to-port="1"/>
		<edge from-layer="216" from-port="0" to-layer="217" to-port="2"/>
		<edge from-layer="217" from-port="3" to-layer="218" to-port="0"/>
		<edge from-layer="213" from-port="0" to-layer="218" to-port="1"/>
		<edge from-layer="204" from-port="2" to-layer="220" to-port="0"/>
		<edge from-layer="220" from-port="1" to-layer="223" to-port="0"/>
		<edge from-layer="221" from-port="0" to-layer="223" to-port="1"/>
		<edge from-layer="222" from-port="0" to-layer="223" to-port="2"/>
		<edge from-layer="223" from-port="3" to-layer="224" to-port="0"/>
		<edge from-layer="219" from-port="0" to-layer="224" to-port="1"/>
		<edge from-layer="218" from-port="2" to-layer="225" to-port="0"/>
		<edge from-layer="224" from-port="2" to-layer="225" to-port="1"/>
		<edge from-layer="212" from-port="2" to-layer="226" to-port="0"/>
		<edge from-layer="225" from-port="2" to-layer="226" to-port="1"/>
		<edge from-layer="226" from-port="2" to-layer="227" to-port="0"/>
		<edge from-layer="195" from-port="0" to-layer="227" to-port="1"/>
		<edge from-layer="227" from-port="2" to-layer="229" to-port="0"/>
		<edge from-layer="228" from-port="0" to-layer="229" to-port="1"/>
		<edge from-layer="229" from-port="2" to-layer="230" to-port="0"/>
		<edge from-layer="230" from-port="1" to-layer="231" to-port="0"/>
		<edge from-layer="194" from-port="0" to-layer="231" to-port="1"/>
		<edge from-layer="231" from-port="2" to-layer="233" to-port="0"/>
		<edge from-layer="232" from-port="0" to-layer="233" to-port="1"/>
		<edge from-layer="233" from-port="2" to-layer="234" to-port="0"/>
		<edge from-layer="234" from-port="1" to-layer="235" to-port="0"/>
		<edge from-layer="193" from-port="0" to-layer="235" to-port="1"/>
		<edge from-layer="217" from-port="3" to-layer="239" to-port="0"/>
		<edge from-layer="238" from-port="0" to-layer="239" to-port="1"/>
		<edge from-layer="223" from-port="3" to-layer="241" to-port="0"/>
		<edge from-layer="240" from-port="0" to-layer="241" to-port="1"/>
		<edge from-layer="239" from-port="2" to-layer="242" to-port="0"/>
		<edge from-layer="241" from-port="2" to-layer="242" to-port="1"/>
		<edge from-layer="236" from-port="0" to-layer="242" to-port="2"/>
		<edge from-layer="237" from-port="0" to-layer="242" to-port="3"/>
		<edge from-layer="235" from-port="2" to-layer="243" to-port="0"/>
		<edge from-layer="242" from-port="4" to-layer="243" to-port="1"/>
		<edge from-layer="204" from-port="2" to-layer="244" to-port="0"/>
		<edge from-layer="243" from-port="2" to-layer="244" to-port="1"/>
		<edge from-layer="244" from-port="2" to-layer="245" to-port="0"/>
		<edge from-layer="245" from-port="1" to-layer="246" to-port="0"/>
		<edge from-layer="192" from-port="0" to-layer="246" to-port="1"/>
		<edge from-layer="246" from-port="2" to-layer="248" to-port="0"/>
		<edge from-layer="247" from-port="0" to-layer="248" to-port="1"/>
		<edge from-layer="191" from-port="2" to-layer="249" to-port="0"/>
		<edge from-layer="248" from-port="2" to-layer="249" to-port="1"/>
		<edge from-layer="249" from-port="2" to-layer="250" to-port="0"/>
		<edge from-layer="26" from-port="0" to-layer="250" to-port="1"/>
		<edge from-layer="250" from-port="2" to-layer="252" to-port="0"/>
		<edge from-layer="251" from-port="0" to-layer="252" to-port="1"/>
		<edge from-layer="252" from-port="2" to-layer="255" to-port="0"/>
		<edge from-layer="254" from-port="0" to-layer="255" to-port="1"/>
		<edge from-layer="255" from-port="2" to-layer="256" to-port="0"/>
		<edge from-layer="256" from-port="1" to-layer="257" to-port="0"/>
		<edge from-layer="253" from-port="0" to-layer="257" to-port="1"/>
		<edge from-layer="252" from-port="2" to-layer="258" to-port="0"/>
		<edge from-layer="257" from-port="2" to-layer="258" to-port="1"/>
		<edge from-layer="258" from-port="2" to-layer="260" to-port="0"/>
		<edge from-layer="259" from-port="0" to-layer="260" to-port="1"/>
		<edge from-layer="260" from-port="2" to-layer="262" to-port="0"/>
		<edge from-layer="261" from-port="0" to-layer="262" to-port="1"/>
		<edge from-layer="262" from-port="2" to-layer="265" to-port="0"/>
		<edge from-layer="264" from-port="0" to-layer="265" to-port="1"/>
		<edge from-layer="265" from-port="2" to-layer="266" to-port="0"/>
		<edge from-layer="266" from-port="1" to-layer="267" to-port="0"/>
		<edge from-layer="263" from-port="0" to-layer="267" to-port="1"/>
		<edge from-layer="262" from-port="2" to-layer="268" to-port="0"/>
		<edge from-layer="267" from-port="2" to-layer="268" to-port="1"/>
		<edge from-layer="268" from-port="2" to-layer="269" to-port="0"/>
		<edge from-layer="25" from-port="0" to-layer="269" to-port="1"/>
		<edge from-layer="269" from-port="2" to-layer="271" to-port="0"/>
		<edge from-layer="270" from-port="0" to-layer="271" to-port="1"/>
		<edge from-layer="271" from-port="2" to-layer="272" to-port="0"/>
		<edge from-layer="24" from-port="0" to-layer="272" to-port="1"/>
		<edge from-layer="272" from-port="2" to-layer="274" to-port="0"/>
		<edge from-layer="273" from-port="0" to-layer="274" to-port="1"/>
		<edge from-layer="274" from-port="2" to-layer="277" to-port="0"/>
		<edge from-layer="276" from-port="0" to-layer="277" to-port="1"/>
		<edge from-layer="277" from-port="2" to-layer="278" to-port="0"/>
		<edge from-layer="278" from-port="1" to-layer="279" to-port="0"/>
		<edge from-layer="275" from-port="0" to-layer="279" to-port="1"/>
		<edge from-layer="274" from-port="2" to-layer="280" to-port="0"/>
		<edge from-layer="279" from-port="2" to-layer="280" to-port="1"/>
		<edge from-layer="280" from-port="2" to-layer="282" to-port="0"/>
		<edge from-layer="281" from-port="0" to-layer="282" to-port="1"/>
		<edge from-layer="282" from-port="2" to-layer="284" to-port="0"/>
		<edge from-layer="283" from-port="0" to-layer="284" to-port="1"/>
		<edge from-layer="284" from-port="2" to-layer="287" to-port="0"/>
		<edge from-layer="286" from-port="0" to-layer="287" to-port="1"/>
		<edge from-layer="287" from-port="2" to-layer="288" to-port="0"/>
		<edge from-layer="288" from-port="1" to-layer="289" to-port="0"/>
		<edge from-layer="285" from-port="0" to-layer="289" to-port="1"/>
		<edge from-layer="284" from-port="2" to-layer="290" to-port="0"/>
		<edge from-layer="289" from-port="2" to-layer="290" to-port="1"/>
		<edge from-layer="290" from-port="2" to-layer="291" to-port="0"/>
		<edge from-layer="23" from-port="0" to-layer="291" to-port="1"/>
		<edge from-layer="291" from-port="2" to-layer="293" to-port="0"/>
		<edge from-layer="292" from-port="0" to-layer="293" to-port="1"/>
		<edge from-layer="271" from-port="2" to-layer="294" to-port="0"/>
		<edge from-layer="293" from-port="2" to-layer="294" to-port="1"/>
		<edge from-layer="294" from-port="2" to-layer="297" to-port="0"/>
		<edge from-layer="296" from-port="0" to-layer="297" to-port="1"/>
		<edge from-layer="297" from-port="2" to-layer="299" to-port="0"/>
		<edge from-layer="298" from-port="0" to-layer="299" to-port="1"/>
		<edge from-layer="299" from-port="2" to-layer="302" to-port="0"/>
		<edge from-layer="301" from-port="0" to-layer="302" to-port="1"/>
		<edge from-layer="302" from-port="2" to-layer="303" to-port="0"/>
		<edge from-layer="303" from-port="1" to-layer="304" to-port="0"/>
		<edge from-layer="300" from-port="0" to-layer="304" to-port="1"/>
		<edge from-layer="299" from-port="2" to-layer="305" to-port="0"/>
		<edge from-layer="304" from-port="2" to-layer="305" to-port="1"/>
		<edge from-layer="305" from-port="2" to-layer="307" to-port="0"/>
		<edge from-layer="306" from-port="0" to-layer="307" to-port="1"/>
		<edge from-layer="307" from-port="2" to-layer="309" to-port="0"/>
		<edge from-layer="308" from-port="0" to-layer="309" to-port="1"/>
		<edge from-layer="309" from-port="2" to-layer="312" to-port="0"/>
		<edge from-layer="311" from-port="0" to-layer="312" to-port="1"/>
		<edge from-layer="312" from-port="2" to-layer="313" to-port="0"/>
		<edge from-layer="313" from-port="1" to-layer="314" to-port="0"/>
		<edge from-layer="310" from-port="0" to-layer="314" to-port="1"/>
		<edge from-layer="309" from-port="2" to-layer="315" to-port="0"/>
		<edge from-layer="314" from-port="2" to-layer="315" to-port="1"/>
		<edge from-layer="315" from-port="2" to-layer="316" to-port="0"/>
		<edge from-layer="295" from-port="0" to-layer="316" to-port="1"/>
		<edge from-layer="316" from-port="2" to-layer="318" to-port="0"/>
		<edge from-layer="317" from-port="0" to-layer="318" to-port="1"/>
		<edge from-layer="294" from-port="2" to-layer="319" to-port="0"/>
		<edge from-layer="318" from-port="2" to-layer="319" to-port="1"/>
		<edge from-layer="319" from-port="2" to-layer="322" to-port="0"/>
		<edge from-layer="321" from-port="0" to-layer="322" to-port="1"/>
		<edge from-layer="322" from-port="2" to-layer="324" to-port="0"/>
		<edge from-layer="323" from-port="0" to-layer="324" to-port="1"/>
		<edge from-layer="324" from-port="2" to-layer="327" to-port="0"/>
		<edge from-layer="326" from-port="0" to-layer="327" to-port="1"/>
		<edge from-layer="327" from-port="2" to-layer="328" to-port="0"/>
		<edge from-layer="328" from-port="1" to-layer="329" to-port="0"/>
		<edge from-layer="325" from-port="0" to-layer="329" to-port="1"/>
		<edge from-layer="324" from-port="2" to-layer="330" to-port="0"/>
		<edge from-layer="329" from-port="2" to-layer="330" to-port="1"/>
		<edge from-layer="330" from-port="2" to-layer="332" to-port="0"/>
		<edge from-layer="331" from-port="0" to-layer="332" to-port="1"/>
		<edge from-layer="332" from-port="2" to-layer="334" to-port="0"/>
		<edge from-layer="333" from-port="0" to-layer="334" to-port="1"/>
		<edge from-layer="334" from-port="2" to-layer="337" to-port="0"/>
		<edge from-layer="336" from-port="0" to-layer="337" to-port="1"/>
		<edge from-layer="337" from-port="2" to-layer="338" to-port="0"/>
		<edge from-layer="338" from-port="1" to-layer="339" to-port="0"/>
		<edge from-layer="335" from-port="0" to-layer="339" to-port="1"/>
		<edge from-layer="334" from-port="2" to-layer="340" to-port="0"/>
		<edge from-layer="339" from-port="2" to-layer="340" to-port="1"/>
		<edge from-layer="340" from-port="2" to-layer="341" to-port="0"/>
		<edge from-layer="320" from-port="0" to-layer="341" to-port="1"/>
		<edge from-layer="341" from-port="2" to-layer="343" to-port="0"/>
		<edge from-layer="342" from-port="0" to-layer="343" to-port="1"/>
		<edge from-layer="319" from-port="2" to-layer="344" to-port="0"/>
		<edge from-layer="343" from-port="2" to-layer="344" to-port="1"/>
		<edge from-layer="344" from-port="2" to-layer="345" to-port="0"/>
		<edge from-layer="22" from-port="0" to-layer="345" to-port="1"/>
		<edge from-layer="345" from-port="2" to-layer="347" to-port="0"/>
		<edge from-layer="346" from-port="0" to-layer="347" to-port="1"/>
		<edge from-layer="347" from-port="2" to-layer="350" to-port="0"/>
		<edge from-layer="349" from-port="0" to-layer="350" to-port="1"/>
		<edge from-layer="350" from-port="2" to-layer="351" to-port="0"/>
		<edge from-layer="351" from-port="1" to-layer="352" to-port="0"/>
		<edge from-layer="348" from-port="0" to-layer="352" to-port="1"/>
		<edge from-layer="347" from-port="2" to-layer="353" to-port="0"/>
		<edge from-layer="352" from-port="2" to-layer="353" to-port="1"/>
		<edge from-layer="353" from-port="2" to-layer="355" to-port="0"/>
		<edge from-layer="354" from-port="0" to-layer="355" to-port="1"/>
		<edge from-layer="355" from-port="2" to-layer="357" to-port="0"/>
		<edge from-layer="356" from-port="0" to-layer="357" to-port="1"/>
		<edge from-layer="357" from-port="2" to-layer="360" to-port="0"/>
		<edge from-layer="360" from-port="1" to-layer="361" to-port="0"/>
		<edge from-layer="361" from-port="1" to-layer="363" to-port="0"/>
		<edge from-layer="362" from-port="0" to-layer="363" to-port="1"/>
		<edge from-layer="358" from-port="0" to-layer="364" to-port="0"/>
		<edge from-layer="363" from-port="2" to-layer="364" to-port="1"/>
		<edge from-layer="359" from-port="0" to-layer="364" to-port="2"/>
		<edge from-layer="357" from-port="2" to-layer="365" to-port="0"/>
		<edge from-layer="364" from-port="3" to-layer="365" to-port="1"/>
		<edge from-layer="357" from-port="2" to-layer="367" to-port="0"/>
		<edge from-layer="367" from-port="1" to-layer="370" to-port="0"/>
		<edge from-layer="368" from-port="0" to-layer="370" to-port="1"/>
		<edge from-layer="369" from-port="0" to-layer="370" to-port="2"/>
		<edge from-layer="370" from-port="3" to-layer="371" to-port="0"/>
		<edge from-layer="366" from-port="0" to-layer="371" to-port="1"/>
		<edge from-layer="357" from-port="2" to-layer="373" to-port="0"/>
		<edge from-layer="373" from-port="1" to-layer="376" to-port="0"/>
		<edge from-layer="374" from-port="0" to-layer="376" to-port="1"/>
		<edge from-layer="375" from-port="0" to-layer="376" to-port="2"/>
		<edge from-layer="376" from-port="3" to-layer="377" to-port="0"/>
		<edge from-layer="372" from-port="0" to-layer="377" to-port="1"/>
		<edge from-layer="371" from-port="2" to-layer="378" to-port="0"/>
		<edge from-layer="377" from-port="2" to-layer="378" to-port="1"/>
		<edge from-layer="365" from-port="2" to-layer="379" to-port="0"/>
		<edge from-layer="378" from-port="2" to-layer="379" to-port="1"/>
		<edge from-layer="379" from-port="2" to-layer="380" to-port="0"/>
		<edge from-layer="21" from-port="0" to-layer="380" to-port="1"/>
		<edge from-layer="380" from-port="2" to-layer="382" to-port="0"/>
		<edge from-layer="381" from-port="0" to-layer="382" to-port="1"/>
		<edge from-layer="382" from-port="2" to-layer="383" to-port="0"/>
		<edge from-layer="383" from-port="1" to-layer="384" to-port="0"/>
		<edge from-layer="20" from-port="0" to-layer="384" to-port="1"/>
		<edge from-layer="384" from-port="2" to-layer="386" to-port="0"/>
		<edge from-layer="385" from-port="0" to-layer="386" to-port="1"/>
		<edge from-layer="386" from-port="2" to-layer="387" to-port="0"/>
		<edge from-layer="387" from-port="1" to-layer="388" to-port="0"/>
		<edge from-layer="19" from-port="0" to-layer="388" to-port="1"/>
		<edge from-layer="370" from-port="3" to-layer="392" to-port="0"/>
		<edge from-layer="391" from-port="0" to-layer="392" to-port="1"/>
		<edge from-layer="376" from-port="3" to-layer="394" to-port="0"/>
		<edge from-layer="393" from-port="0" to-layer="394" to-port="1"/>
		<edge from-layer="392" from-port="2" to-layer="395" to-port="0"/>
		<edge from-layer="394" from-port="2" to-layer="395" to-port="1"/>
		<edge from-layer="389" from-port="0" to-layer="395" to-port="2"/>
		<edge from-layer="390" from-port="0" to-layer="395" to-port="3"/>
		<edge from-layer="388" from-port="2" to-layer="396" to-port="0"/>
		<edge from-layer="395" from-port="4" to-layer="396" to-port="1"/>
		<edge from-layer="357" from-port="2" to-layer="397" to-port="0"/>
		<edge from-layer="396" from-port="2" to-layer="397" to-port="1"/>
		<edge from-layer="397" from-port="2" to-layer="400" to-port="0"/>
		<edge from-layer="399" from-port="0" to-layer="400" to-port="1"/>
		<edge from-layer="400" from-port="2" to-layer="401" to-port="0"/>
		<edge from-layer="401" from-port="1" to-layer="402" to-port="0"/>
		<edge from-layer="398" from-port="0" to-layer="402" to-port="1"/>
		<edge from-layer="397" from-port="2" to-layer="403" to-port="0"/>
		<edge from-layer="402" from-port="2" to-layer="403" to-port="1"/>
		<edge from-layer="403" from-port="2" to-layer="404" to-port="0"/>
		<edge from-layer="18" from-port="0" to-layer="404" to-port="1"/>
		<edge from-layer="404" from-port="2" to-layer="406" to-port="0"/>
		<edge from-layer="405" from-port="0" to-layer="406" to-port="1"/>
		<edge from-layer="406" from-port="2" to-layer="407" to-port="0"/>
		<edge from-layer="17" from-port="0" to-layer="407" to-port="1"/>
		<edge from-layer="407" from-port="2" to-layer="409" to-port="0"/>
		<edge from-layer="408" from-port="0" to-layer="409" to-port="1"/>
		<edge from-layer="409" from-port="2" to-layer="412" to-port="0"/>
		<edge from-layer="411" from-port="0" to-layer="412" to-port="1"/>
		<edge from-layer="412" from-port="2" to-layer="413" to-port="0"/>
		<edge from-layer="413" from-port="1" to-layer="414" to-port="0"/>
		<edge from-layer="410" from-port="0" to-layer="414" to-port="1"/>
		<edge from-layer="409" from-port="2" to-layer="415" to-port="0"/>
		<edge from-layer="414" from-port="2" to-layer="415" to-port="1"/>
		<edge from-layer="415" from-port="2" to-layer="417" to-port="0"/>
		<edge from-layer="416" from-port="0" to-layer="417" to-port="1"/>
		<edge from-layer="417" from-port="2" to-layer="419" to-port="0"/>
		<edge from-layer="418" from-port="0" to-layer="419" to-port="1"/>
		<edge from-layer="419" from-port="2" to-layer="422" to-port="0"/>
		<edge from-layer="422" from-port="1" to-layer="423" to-port="0"/>
		<edge from-layer="423" from-port="1" to-layer="425" to-port="0"/>
		<edge from-layer="424" from-port="0" to-layer="425" to-port="1"/>
		<edge from-layer="420" from-port="0" to-layer="426" to-port="0"/>
		<edge from-layer="425" from-port="2" to-layer="426" to-port="1"/>
		<edge from-layer="421" from-port="0" to-layer="426" to-port="2"/>
		<edge from-layer="419" from-port="2" to-layer="427" to-port="0"/>
		<edge from-layer="426" from-port="3" to-layer="427" to-port="1"/>
		<edge from-layer="419" from-port="2" to-layer="429" to-port="0"/>
		<edge from-layer="429" from-port="1" to-layer="432" to-port="0"/>
		<edge from-layer="430" from-port="0" to-layer="432" to-port="1"/>
		<edge from-layer="431" from-port="0" to-layer="432" to-port="2"/>
		<edge from-layer="432" from-port="3" to-layer="433" to-port="0"/>
		<edge from-layer="428" from-port="0" to-layer="433" to-port="1"/>
		<edge from-layer="419" from-port="2" to-layer="435" to-port="0"/>
		<edge from-layer="435" from-port="1" to-layer="438" to-port="0"/>
		<edge from-layer="436" from-port="0" to-layer="438" to-port="1"/>
		<edge from-layer="437" from-port="0" to-layer="438" to-port="2"/>
		<edge from-layer="438" from-port="3" to-layer="439" to-port="0"/>
		<edge from-layer="434" from-port="0" to-layer="439" to-port="1"/>
		<edge from-layer="433" from-port="2" to-layer="440" to-port="0"/>
		<edge from-layer="439" from-port="2" to-layer="440" to-port="1"/>
		<edge from-layer="427" from-port="2" to-layer="441" to-port="0"/>
		<edge from-layer="440" from-port="2" to-layer="441" to-port="1"/>
		<edge from-layer="441" from-port="2" to-layer="442" to-port="0"/>
		<edge from-layer="16" from-port="0" to-layer="442" to-port="1"/>
		<edge from-layer="442" from-port="2" to-layer="444" to-port="0"/>
		<edge from-layer="443" from-port="0" to-layer="444" to-port="1"/>
		<edge from-layer="444" from-port="2" to-layer="445" to-port="0"/>
		<edge from-layer="445" from-port="1" to-layer="446" to-port="0"/>
		<edge from-layer="15" from-port="0" to-layer="446" to-port="1"/>
		<edge from-layer="446" from-port="2" to-layer="448" to-port="0"/>
		<edge from-layer="447" from-port="0" to-layer="448" to-port="1"/>
		<edge from-layer="448" from-port="2" to-layer="449" to-port="0"/>
		<edge from-layer="449" from-port="1" to-layer="450" to-port="0"/>
		<edge from-layer="14" from-port="0" to-layer="450" to-port="1"/>
		<edge from-layer="432" from-port="3" to-layer="454" to-port="0"/>
		<edge from-layer="453" from-port="0" to-layer="454" to-port="1"/>
		<edge from-layer="438" from-port="3" to-layer="456" to-port="0"/>
		<edge from-layer="455" from-port="0" to-layer="456" to-port="1"/>
		<edge from-layer="454" from-port="2" to-layer="457" to-port="0"/>
		<edge from-layer="456" from-port="2" to-layer="457" to-port="1"/>
		<edge from-layer="451" from-port="0" to-layer="457" to-port="2"/>
		<edge from-layer="452" from-port="0" to-layer="457" to-port="3"/>
		<edge from-layer="450" from-port="2" to-layer="458" to-port="0"/>
		<edge from-layer="457" from-port="4" to-layer="458" to-port="1"/>
		<edge from-layer="419" from-port="2" to-layer="459" to-port="0"/>
		<edge from-layer="458" from-port="2" to-layer="459" to-port="1"/>
		<edge from-layer="459" from-port="2" to-layer="462" to-port="0"/>
		<edge from-layer="461" from-port="0" to-layer="462" to-port="1"/>
		<edge from-layer="462" from-port="2" to-layer="463" to-port="0"/>
		<edge from-layer="463" from-port="1" to-layer="464" to-port="0"/>
		<edge from-layer="460" from-port="0" to-layer="464" to-port="1"/>
		<edge from-layer="459" from-port="2" to-layer="465" to-port="0"/>
		<edge from-layer="464" from-port="2" to-layer="465" to-port="1"/>
		<edge from-layer="465" from-port="2" to-layer="466" to-port="0"/>
		<edge from-layer="13" from-port="0" to-layer="466" to-port="1"/>
		<edge from-layer="466" from-port="2" to-layer="468" to-port="0"/>
		<edge from-layer="467" from-port="0" to-layer="468" to-port="1"/>
		<edge from-layer="406" from-port="2" to-layer="469" to-port="0"/>
		<edge from-layer="468" from-port="2" to-layer="469" to-port="1"/>
		<edge from-layer="469" from-port="2" to-layer="470" to-port="0"/>
		<edge from-layer="12" from-port="0" to-layer="470" to-port="1"/>
		<edge from-layer="470" from-port="2" to-layer="472" to-port="0"/>
		<edge from-layer="471" from-port="0" to-layer="472" to-port="1"/>
		<edge from-layer="472" from-port="2" to-layer="475" to-port="0"/>
		<edge from-layer="474" from-port="0" to-layer="475" to-port="1"/>
		<edge from-layer="475" from-port="2" to-layer="476" to-port="0"/>
		<edge from-layer="476" from-port="1" to-layer="477" to-port="0"/>
		<edge from-layer="473" from-port="0" to-layer="477" to-port="1"/>
		<edge from-layer="472" from-port="2" to-layer="478" to-port="0"/>
		<edge from-layer="477" from-port="2" to-layer="478" to-port="1"/>
		<edge from-layer="478" from-port="2" to-layer="480" to-port="0"/>
		<edge from-layer="479" from-port="0" to-layer="480" to-port="1"/>
		<edge from-layer="480" from-port="2" to-layer="482" to-port="0"/>
		<edge from-layer="481" from-port="0" to-layer="482" to-port="1"/>
		<edge from-layer="482" from-port="2" to-layer="485" to-port="0"/>
		<edge from-layer="485" from-port="1" to-layer="486" to-port="0"/>
		<edge from-layer="486" from-port="1" to-layer="488" to-port="0"/>
		<edge from-layer="487" from-port="0" to-layer="488" to-port="1"/>
		<edge from-layer="483" from-port="0" to-layer="489" to-port="0"/>
		<edge from-layer="488" from-port="2" to-layer="489" to-port="1"/>
		<edge from-layer="484" from-port="0" to-layer="489" to-port="2"/>
		<edge from-layer="482" from-port="2" to-layer="490" to-port="0"/>
		<edge from-layer="489" from-port="3" to-layer="490" to-port="1"/>
		<edge from-layer="482" from-port="2" to-layer="492" to-port="0"/>
		<edge from-layer="492" from-port="1" to-layer="495" to-port="0"/>
		<edge from-layer="493" from-port="0" to-layer="495" to-port="1"/>
		<edge from-layer="494" from-port="0" to-layer="495" to-port="2"/>
		<edge from-layer="495" from-port="3" to-layer="496" to-port="0"/>
		<edge from-layer="491" from-port="0" to-layer="496" to-port="1"/>
		<edge from-layer="482" from-port="2" to-layer="498" to-port="0"/>
		<edge from-layer="498" from-port="1" to-layer="501" to-port="0"/>
		<edge from-layer="499" from-port="0" to-layer="501" to-port="1"/>
		<edge from-layer="500" from-port="0" to-layer="501" to-port="2"/>
		<edge from-layer="501" from-port="3" to-layer="502" to-port="0"/>
		<edge from-layer="497" from-port="0" to-layer="502" to-port="1"/>
		<edge from-layer="496" from-port="2" to-layer="503" to-port="0"/>
		<edge from-layer="502" from-port="2" to-layer="503" to-port="1"/>
		<edge from-layer="490" from-port="2" to-layer="504" to-port="0"/>
		<edge from-layer="503" from-port="2" to-layer="504" to-port="1"/>
		<edge from-layer="504" from-port="2" to-layer="505" to-port="0"/>
		<edge from-layer="11" from-port="0" to-layer="505" to-port="1"/>
		<edge from-layer="505" from-port="2" to-layer="507" to-port="0"/>
		<edge from-layer="506" from-port="0" to-layer="507" to-port="1"/>
		<edge from-layer="507" from-port="2" to-layer="508" to-port="0"/>
		<edge from-layer="508" from-port="1" to-layer="509" to-port="0"/>
		<edge from-layer="10" from-port="0" to-layer="509" to-port="1"/>
		<edge from-layer="509" from-port="2" to-layer="511" to-port="0"/>
		<edge from-layer="510" from-port="0" to-layer="511" to-port="1"/>
		<edge from-layer="511" from-port="2" to-layer="512" to-port="0"/>
		<edge from-layer="512" from-port="1" to-layer="513" to-port="0"/>
		<edge from-layer="9" from-port="0" to-layer="513" to-port="1"/>
		<edge from-layer="495" from-port="3" to-layer="517" to-port="0"/>
		<edge from-layer="516" from-port="0" to-layer="517" to-port="1"/>
		<edge from-layer="501" from-port="3" to-layer="519" to-port="0"/>
		<edge from-layer="518" from-port="0" to-layer="519" to-port="1"/>
		<edge from-layer="517" from-port="2" to-layer="520" to-port="0"/>
		<edge from-layer="519" from-port="2" to-layer="520" to-port="1"/>
		<edge from-layer="514" from-port="0" to-layer="520" to-port="2"/>
		<edge from-layer="515" from-port="0" to-layer="520" to-port="3"/>
		<edge from-layer="513" from-port="2" to-layer="521" to-port="0"/>
		<edge from-layer="520" from-port="4" to-layer="521" to-port="1"/>
		<edge from-layer="482" from-port="2" to-layer="522" to-port="0"/>
		<edge from-layer="521" from-port="2" to-layer="522" to-port="1"/>
		<edge from-layer="522" from-port="2" to-layer="525" to-port="0"/>
		<edge from-layer="524" from-port="0" to-layer="525" to-port="1"/>
		<edge from-layer="525" from-port="2" to-layer="526" to-port="0"/>
		<edge from-layer="526" from-port="1" to-layer="527" to-port="0"/>
		<edge from-layer="523" from-port="0" to-layer="527" to-port="1"/>
		<edge from-layer="522" from-port="2" to-layer="528" to-port="0"/>
		<edge from-layer="527" from-port="2" to-layer="528" to-port="1"/>
		<edge from-layer="528" from-port="2" to-layer="529" to-port="0"/>
		<edge from-layer="8" from-port="0" to-layer="529" to-port="1"/>
		<edge from-layer="529" from-port="2" to-layer="531" to-port="0"/>
		<edge from-layer="530" from-port="0" to-layer="531" to-port="1"/>
		<edge from-layer="531" from-port="2" to-layer="532" to-port="0"/>
		<edge from-layer="7" from-port="0" to-layer="532" to-port="1"/>
		<edge from-layer="532" from-port="2" to-layer="534" to-port="0"/>
		<edge from-layer="533" from-port="0" to-layer="534" to-port="1"/>
		<edge from-layer="534" from-port="2" to-layer="537" to-port="0"/>
		<edge from-layer="536" from-port="0" to-layer="537" to-port="1"/>
		<edge from-layer="537" from-port="2" to-layer="538" to-port="0"/>
		<edge from-layer="538" from-port="1" to-layer="539" to-port="0"/>
		<edge from-layer="535" from-port="0" to-layer="539" to-port="1"/>
		<edge from-layer="534" from-port="2" to-layer="540" to-port="0"/>
		<edge from-layer="539" from-port="2" to-layer="540" to-port="1"/>
		<edge from-layer="540" from-port="2" to-layer="542" to-port="0"/>
		<edge from-layer="541" from-port="0" to-layer="542" to-port="1"/>
		<edge from-layer="542" from-port="2" to-layer="544" to-port="0"/>
		<edge from-layer="543" from-port="0" to-layer="544" to-port="1"/>
		<edge from-layer="544" from-port="2" to-layer="547" to-port="0"/>
		<edge from-layer="547" from-port="1" to-layer="548" to-port="0"/>
		<edge from-layer="548" from-port="1" to-layer="550" to-port="0"/>
		<edge from-layer="549" from-port="0" to-layer="550" to-port="1"/>
		<edge from-layer="545" from-port="0" to-layer="551" to-port="0"/>
		<edge from-layer="550" from-port="2" to-layer="551" to-port="1"/>
		<edge from-layer="546" from-port="0" to-layer="551" to-port="2"/>
		<edge from-layer="544" from-port="2" to-layer="552" to-port="0"/>
		<edge from-layer="551" from-port="3" to-layer="552" to-port="1"/>
		<edge from-layer="544" from-port="2" to-layer="554" to-port="0"/>
		<edge from-layer="554" from-port="1" to-layer="557" to-port="0"/>
		<edge from-layer="555" from-port="0" to-layer="557" to-port="1"/>
		<edge from-layer="556" from-port="0" to-layer="557" to-port="2"/>
		<edge from-layer="557" from-port="3" to-layer="558" to-port="0"/>
		<edge from-layer="553" from-port="0" to-layer="558" to-port="1"/>
		<edge from-layer="544" from-port="2" to-layer="560" to-port="0"/>
		<edge from-layer="560" from-port="1" to-layer="563" to-port="0"/>
		<edge from-layer="561" from-port="0" to-layer="563" to-port="1"/>
		<edge from-layer="562" from-port="0" to-layer="563" to-port="2"/>
		<edge from-layer="563" from-port="3" to-layer="564" to-port="0"/>
		<edge from-layer="559" from-port="0" to-layer="564" to-port="1"/>
		<edge from-layer="558" from-port="2" to-layer="565" to-port="0"/>
		<edge from-layer="564" from-port="2" to-layer="565" to-port="1"/>
		<edge from-layer="552" from-port="2" to-layer="566" to-port="0"/>
		<edge from-layer="565" from-port="2" to-layer="566" to-port="1"/>
		<edge from-layer="566" from-port="2" to-layer="567" to-port="0"/>
		<edge from-layer="6" from-port="0" to-layer="567" to-port="1"/>
		<edge from-layer="567" from-port="2" to-layer="569" to-port="0"/>
		<edge from-layer="568" from-port="0" to-layer="569" to-port="1"/>
		<edge from-layer="569" from-port="2" to-layer="570" to-port="0"/>
		<edge from-layer="570" from-port="1" to-layer="571" to-port="0"/>
		<edge from-layer="5" from-port="0" to-layer="571" to-port="1"/>
		<edge from-layer="571" from-port="2" to-layer="573" to-port="0"/>
		<edge from-layer="572" from-port="0" to-layer="573" to-port="1"/>
		<edge from-layer="573" from-port="2" to-layer="574" to-port="0"/>
		<edge from-layer="574" from-port="1" to-layer="575" to-port="0"/>
		<edge from-layer="4" from-port="0" to-layer="575" to-port="1"/>
		<edge from-layer="557" from-port="3" to-layer="579" to-port="0"/>
		<edge from-layer="578" from-port="0" to-layer="579" to-port="1"/>
		<edge from-layer="563" from-port="3" to-layer="581" to-port="0"/>
		<edge from-layer="580" from-port="0" to-layer="581" to-port="1"/>
		<edge from-layer="579" from-port="2" to-layer="582" to-port="0"/>
		<edge from-layer="581" from-port="2" to-layer="582" to-port="1"/>
		<edge from-layer="576" from-port="0" to-layer="582" to-port="2"/>
		<edge from-layer="577" from-port="0" to-layer="582" to-port="3"/>
		<edge from-layer="575" from-port="2" to-layer="583" to-port="0"/>
		<edge from-layer="582" from-port="4" to-layer="583" to-port="1"/>
		<edge from-layer="544" from-port="2" to-layer="584" to-port="0"/>
		<edge from-layer="583" from-port="2" to-layer="584" to-port="1"/>
		<edge from-layer="584" from-port="2" to-layer="587" to-port="0"/>
		<edge from-layer="586" from-port="0" to-layer="587" to-port="1"/>
		<edge from-layer="587" from-port="2" to-layer="588" to-port="0"/>
		<edge from-layer="588" from-port="1" to-layer="589" to-port="0"/>
		<edge from-layer="585" from-port="0" to-layer="589" to-port="1"/>
		<edge from-layer="584" from-port="2" to-layer="590" to-port="0"/>
		<edge from-layer="589" from-port="2" to-layer="590" to-port="1"/>
		<edge from-layer="590" from-port="2" to-layer="591" to-port="0"/>
		<edge from-layer="3" from-port="0" to-layer="591" to-port="1"/>
		<edge from-layer="591" from-port="2" to-layer="593" to-port="0"/>
		<edge from-layer="592" from-port="0" to-layer="593" to-port="1"/>
		<edge from-layer="531" from-port="2" to-layer="594" to-port="0"/>
		<edge from-layer="593" from-port="2" to-layer="594" to-port="1"/>
		<edge from-layer="594" from-port="2" to-layer="600" to-port="0"/>
		<edge from-layer="599" from-port="0" to-layer="600" to-port="1"/>
		<edge from-layer="600" from-port="2" to-layer="602" to-port="0"/>
		<edge from-layer="601" from-port="0" to-layer="602" to-port="1"/>
		<edge from-layer="602" from-port="2" to-layer="605" to-port="0"/>
		<edge from-layer="604" from-port="0" to-layer="605" to-port="1"/>
		<edge from-layer="605" from-port="2" to-layer="606" to-port="0"/>
		<edge from-layer="606" from-port="1" to-layer="607" to-port="0"/>
		<edge from-layer="603" from-port="0" to-layer="607" to-port="1"/>
		<edge from-layer="602" from-port="2" to-layer="608" to-port="0"/>
		<edge from-layer="607" from-port="2" to-layer="608" to-port="1"/>
		<edge from-layer="608" from-port="2" to-layer="610" to-port="0"/>
		<edge from-layer="609" from-port="0" to-layer="610" to-port="1"/>
		<edge from-layer="610" from-port="2" to-layer="612" to-port="0"/>
		<edge from-layer="611" from-port="0" to-layer="612" to-port="1"/>
		<edge from-layer="612" from-port="2" to-layer="615" to-port="0"/>
		<edge from-layer="615" from-port="1" to-layer="616" to-port="0"/>
		<edge from-layer="616" from-port="1" to-layer="618" to-port="0"/>
		<edge from-layer="617" from-port="0" to-layer="618" to-port="1"/>
		<edge from-layer="613" from-port="0" to-layer="619" to-port="0"/>
		<edge from-layer="618" from-port="2" to-layer="619" to-port="1"/>
		<edge from-layer="614" from-port="0" to-layer="619" to-port="2"/>
		<edge from-layer="612" from-port="2" to-layer="620" to-port="0"/>
		<edge from-layer="619" from-port="3" to-layer="620" to-port="1"/>
		<edge from-layer="612" from-port="2" to-layer="622" to-port="0"/>
		<edge from-layer="622" from-port="1" to-layer="625" to-port="0"/>
		<edge from-layer="623" from-port="0" to-layer="625" to-port="1"/>
		<edge from-layer="624" from-port="0" to-layer="625" to-port="2"/>
		<edge from-layer="625" from-port="3" to-layer="626" to-port="0"/>
		<edge from-layer="621" from-port="0" to-layer="626" to-port="1"/>
		<edge from-layer="612" from-port="2" to-layer="628" to-port="0"/>
		<edge from-layer="628" from-port="1" to-layer="631" to-port="0"/>
		<edge from-layer="629" from-port="0" to-layer="631" to-port="1"/>
		<edge from-layer="630" from-port="0" to-layer="631" to-port="2"/>
		<edge from-layer="631" from-port="3" to-layer="632" to-port="0"/>
		<edge from-layer="627" from-port="0" to-layer="632" to-port="1"/>
		<edge from-layer="626" from-port="2" to-layer="633" to-port="0"/>
		<edge from-layer="632" from-port="2" to-layer="633" to-port="1"/>
		<edge from-layer="620" from-port="2" to-layer="634" to-port="0"/>
		<edge from-layer="633" from-port="2" to-layer="634" to-port="1"/>
		<edge from-layer="634" from-port="2" to-layer="635" to-port="0"/>
		<edge from-layer="598" from-port="0" to-layer="635" to-port="1"/>
		<edge from-layer="635" from-port="2" to-layer="637" to-port="0"/>
		<edge from-layer="636" from-port="0" to-layer="637" to-port="1"/>
		<edge from-layer="637" from-port="2" to-layer="638" to-port="0"/>
		<edge from-layer="638" from-port="1" to-layer="639" to-port="0"/>
		<edge from-layer="597" from-port="0" to-layer="639" to-port="1"/>
		<edge from-layer="639" from-port="2" to-layer="641" to-port="0"/>
		<edge from-layer="640" from-port="0" to-layer="641" to-port="1"/>
		<edge from-layer="641" from-port="2" to-layer="642" to-port="0"/>
		<edge from-layer="642" from-port="1" to-layer="643" to-port="0"/>
		<edge from-layer="596" from-port="0" to-layer="643" to-port="1"/>
		<edge from-layer="625" from-port="3" to-layer="647" to-port="0"/>
		<edge from-layer="646" from-port="0" to-layer="647" to-port="1"/>
		<edge from-layer="631" from-port="3" to-layer="649" to-port="0"/>
		<edge from-layer="648" from-port="0" to-layer="649" to-port="1"/>
		<edge from-layer="647" from-port="2" to-layer="650" to-port="0"/>
		<edge from-layer="649" from-port="2" to-layer="650" to-port="1"/>
		<edge from-layer="644" from-port="0" to-layer="650" to-port="2"/>
		<edge from-layer="645" from-port="0" to-layer="650" to-port="3"/>
		<edge from-layer="643" from-port="2" to-layer="651" to-port="0"/>
		<edge from-layer="650" from-port="4" to-layer="651" to-port="1"/>
		<edge from-layer="612" from-port="2" to-layer="652" to-port="0"/>
		<edge from-layer="651" from-port="2" to-layer="652" to-port="1"/>
		<edge from-layer="652" from-port="2" to-layer="655" to-port="0"/>
		<edge from-layer="654" from-port="0" to-layer="655" to-port="1"/>
		<edge from-layer="655" from-port="2" to-layer="656" to-port="0"/>
		<edge from-layer="656" from-port="1" to-layer="657" to-port="0"/>
		<edge from-layer="653" from-port="0" to-layer="657" to-port="1"/>
		<edge from-layer="652" from-port="2" to-layer="658" to-port="0"/>
		<edge from-layer="657" from-port="2" to-layer="658" to-port="1"/>
		<edge from-layer="658" from-port="2" to-layer="659" to-port="0"/>
		<edge from-layer="595" from-port="0" to-layer="659" to-port="1"/>
		<edge from-layer="659" from-port="2" to-layer="661" to-port="0"/>
		<edge from-layer="660" from-port="0" to-layer="661" to-port="1"/>
		<edge from-layer="594" from-port="2" to-layer="662" to-port="0"/>
		<edge from-layer="661" from-port="2" to-layer="662" to-port="1"/>
		<edge from-layer="662" from-port="2" to-layer="663" to-port="0"/>
		<edge from-layer="2" from-port="0" to-layer="663" to-port="1"/>
		<edge from-layer="663" from-port="2" to-layer="665" to-port="0"/>
		<edge from-layer="664" from-port="0" to-layer="665" to-port="1"/>
		<edge from-layer="665" from-port="2" to-layer="668" to-port="0"/>
		<edge from-layer="667" from-port="0" to-layer="668" to-port="1"/>
		<edge from-layer="668" from-port="2" to-layer="669" to-port="0"/>
		<edge from-layer="669" from-port="1" to-layer="670" to-port="0"/>
		<edge from-layer="666" from-port="0" to-layer="670" to-port="1"/>
		<edge from-layer="665" from-port="2" to-layer="671" to-port="0"/>
		<edge from-layer="670" from-port="2" to-layer="671" to-port="1"/>
		<edge from-layer="671" from-port="2" to-layer="674" to-port="0"/>
		<edge from-layer="674" from-port="1" to-layer="675" to-port="0"/>
		<edge from-layer="675" from-port="1" to-layer="677" to-port="0"/>
		<edge from-layer="676" from-port="0" to-layer="677" to-port="1"/>
		<edge from-layer="672" from-port="0" to-layer="678" to-port="0"/>
		<edge from-layer="677" from-port="2" to-layer="678" to-port="1"/>
		<edge from-layer="673" from-port="0" to-layer="678" to-port="2"/>
		<edge from-layer="671" from-port="2" to-layer="679" to-port="0"/>
		<edge from-layer="678" from-port="3" to-layer="679" to-port="1"/>
		<edge from-layer="679" from-port="2" to-layer="682" to-port="0"/>
		<edge from-layer="682" from-port="1" to-layer="685" to-port="0"/>
		<edge from-layer="683" from-port="0" to-layer="685" to-port="1"/>
		<edge from-layer="684" from-port="0" to-layer="685" to-port="2"/>
		<edge from-layer="685" from-port="3" to-layer="686" to-port="0"/>
		<edge from-layer="681" from-port="0" to-layer="686" to-port="1"/>
		<edge from-layer="686" from-port="2" to-layer="687" to-port="0"/>
		<edge from-layer="680" from-port="0" to-layer="687" to-port="1"/>
		<edge from-layer="679" from-port="2" to-layer="688" to-port="0"/>
		<edge from-layer="687" from-port="2" to-layer="688" to-port="1"/>
		<edge from-layer="688" from-port="2" to-layer="689" to-port="0"/>
		<edge from-layer="1" from-port="0" to-layer="689" to-port="1"/>
		<edge from-layer="689" from-port="2" to-layer="691" to-port="0"/>
		<edge from-layer="690" from-port="0" to-layer="691" to-port="1"/>
		<edge from-layer="691" from-port="2" to-layer="694" to-port="0"/>
		<edge from-layer="693" from-port="0" to-layer="694" to-port="1"/>
		<edge from-layer="694" from-port="2" to-layer="695" to-port="0"/>
		<edge from-layer="695" from-port="1" to-layer="696" to-port="0"/>
		<edge from-layer="692" from-port="0" to-layer="696" to-port="1"/>
		<edge from-layer="691" from-port="2" to-layer="697" to-port="0"/>
		<edge from-layer="696" from-port="2" to-layer="697" to-port="1"/>
		<edge from-layer="697" from-port="2" to-layer="698" to-port="0"/>
		<edge from-layer="0" from-port="0" to-layer="698" to-port="1"/>
		<edge from-layer="698" from-port="2" to-layer="700" to-port="0"/>
		<edge from-layer="699" from-port="0" to-layer="700" to-port="1"/>
		<edge from-layer="700" from-port="2" to-layer="701" to-port="0"/>
	</edges>
	<meta_data>
		<MO_version value="2021.4.0-3839-cd81789d294-releases/2021/4"/>
		<cli_parameters>
			<data_type value="float"/>
			<disable_resnet_optimization value="False"/>
			<disable_weights_compression value="False"/>
			<enable_concat_optimization value="False"/>
			<extensions value="DIR"/>
			<framework value="onnx"/>
			<freeze_placeholder_with_value value="{}"/>
			<generate_deprecated_IR_V7 value="False"/>
			<input_model value="DIR\model.onnx"/>
			<keep_shape_ops value="True"/>
			<legacy_ir_generation value="False"/>
			<log_level value="ERROR"/>
			<mean_scale_values value="{}"/>
			<mean_values value="()"/>
			<model_name value="model"/>
			<output_dir value="DIR"/>
			<placeholder_data_types value="{}"/>
			<progress value="False"/>
			<reverse_input_channels value="False"/>
			<scale_values value="()"/>
			<silent value="False"/>
			<static_shape value="False"/>
			<stream_output value="False"/>
			<transform value=""/>
			<unset unset_cli_parameters="batch, disable_fusing, disable_gfusing, finegrain_fusing, input, input_shape, move_to_preprocess, output, placeholder_shapes, scale, transformations_config"/>
		</cli_parameters>
	</meta_data>
</net>
